model/digit_cnn.onnx (onnx, 135501 bytes, 8 tensors)

features.0.weight f4 [16, 1, 3, 3]
00000000: fd2f 103f 4732 0a3f 1bb0 babc b1b4 e53e
00000010: 13f7 963e e8e9 c83e 23ca 8dbf 0ff5 2b3e
00000020: 02a1 443e 4c82 0bbf 40fd 283f 070a c03d
00000030: 3935 a7bf 758c 9e3f 7268 d1be 749f 3c3e
00000040: 16e2 4f3f b356 4abe 689e 02bf 62cb 14bf
00000050: 30be b53d 4b5e 1ebf aaa4 71be 3804 573f
00000060: bae9 51be e556 303f fe95 f33e cb84 42bf
00000070: f0ba f2be e40b 303e 402f a7be aaae 1f3f
00000080: c1f3 4d3f c063 503f a827 d13e 6453 0cbf
00000090: c387 693d 5fa6 2b3f 36be e8bc bc7c 23bf
000000a0: 78cc 3cbf cc37 a1bf 270e bebe fb8d acbe
000000b0: 5126 eb3e 86f6 653e c9bc 3f3f 8e9b 46bf
000000c0: 9805 6c3f 485f 8abe 83c1 5ebf 808d 0dbf
000000d0: 56e5 58bf a993 56be 885c 0bbd f2f1 c8be
000000e0: b315 15bf 1ad8 1f3f 8bd0 bdbd 94cc 38bf
000000f0: 029f 663f d390 22bf be61 27bf 94b2 6cbf
00000100: 2674 34bf 9c17 9f3d 3feb 8439 fcb9 5bbe
00000110: aef3 84bf ab64 533f 0ecc 2fbd 0e34 303f
00000120: ec19 82bf 359f 293f 8718 fe3e 916d 49bf
00000130: b73f 7ebd bd9d ed3e 80ec 35bf 6218 f0be
00000140: 34d2 0b3f a682 be3e be4a 50bf 7486 5abe
00000150: bdea 41bd 71fc 5bbf 46ce e93e 665e 24bf
00000160: bd29 aabe 81e8 9dbe b8b5 c13e eedf c13d
00000170: 102d 4d3e 35b2 c23e 5893 e23d af13 773e
00000180: 109c a13e 7e70 9c3e 5f2b 80be 68d3 673e
00000190: f9f6 763f d46b 9ebf 6d72 c33e e557 2a3f
000001a0: 0dc3 5ebf 8750 6fbc 2393 cc3c 5836 013f
000001b0: 6b2e e63e 0735 86bf 7b70 53bf 6b03 b53d
000001c0: a4ac 053d c6a6 10bf 334d d7bd 6b6b 9b3f
000001d0: 0c00 373f 1400 f0bd 701e babf 0ff1 453f
000001e0: eced 6c3f 5ca9 ce3f 0e78 c63e 994d 49be
000001f0: 313e 5fbf bcc8 54bf dcc8 da3b ff7b ad3e
00000200: 33f7 503e ef19 fd3d 60ca a03e c3fd 423e
00000210: 2230 b83e fad4 8a3e ae96 c03d 2dea 1c3f
00000220: 9e13 773d dece 59bf 557c ef3c 7932 10bf
00000230: a86e 15bf 6554 7b3f 7a4b 143f cdbf a5be
0.56323224 0.5398297 -0.022789052 0.4486442 0.29485378 0.39240956 -1.1077312 0.16792701
0.19202045 -0.5449569 0.6601143 0.093769126 -1.3063117 1.2386614 -0.40899998 0.18420202
0.81204355 -0.19759636 -0.5102296 -0.5812284 0.08874166 -0.6186263 -0.2359797 0.8399081
-0.20499316 0.6888259 0.47575372 -0.75983876 -0.47408247 0.17192036 -0.32653236 0.6237589
0.80450064 0.81402206 0.40850568 -0.54814744 0.057014238 0.6705074 -0.028411012 -0.63862205
-0.73749495 -1.2595153 -0.37120172 -0.33702073 0.4592767 0.22457322 0.7489744 -0.7758111
0.92196035 -0.2702582 -0.87014025 -0.55294037 -0.8472494 -0.20954765 -0.03402379 -0.3924709
-0.58236235 0.6243912 -0.09268292 -0.7218716 0.90086377 -0.63502234 -0.6538352 -0.9245999
-0.7048973 0.07768175 0.00025352274 -0.21457666 -1.0386865 0.8257548 -0.04291921 0.6882943
-1.0164161 0.66258556 0.49628088 -0.7868281 -0.062072482 0.46409407 -0.71063995 -0.46893603
0.5461762 0.37209052 -0.8136405 -0.21340352 -0.047343004 -0.8593207 0.45665187 -0.6420654
-0.3323497 -0.3084145 0.37833953 0.09466539 0.20036721 0.38026586 0.1106326 0.24128602
0.3156438 0.30554575 -0.2503309 0.22639239 0.964706 -1.2376657 0.38173237 0.66540366
-0.87016374 -0.014606602 0.024972504 0.50473547 0.4495729 -1.0484933 -0.82593507 0.088385426
0.032635346 -0.56504476 -0.105127715 1.2142156 0.71484447 -0.11718765 -1.4540539 0.7732095
0.9255054 1.6145434 0.3876347 -0.19658507 -0.8720427 -0.83118796 0.0066767763 0.33883664
0.20406799 0.12358462 0.314044 0.19042115 0.35974222 0.27115613 0.0940374 0.61294824
0.060321443 -0.8508128 0.02923409 -0.56327015 -0.58371973 0.9817565 0.5792767 -0.32372895

features.0.bias f4 [16]
00000000: 722c 833f c789 7a3e 127d 4fbe 8ada 8a3e
00000010: 00d1 c1bf 9750 8dbf 7422 a0bf 0375 95bf
00000020: 6b2c 44bf 5fb6 c8bf 6708 943f 03dd a53e
00000030: 5c37 66bd 5e72 4c3e ea54 a13f 4cb7 86be
1.0247939 0.2446662 -0.20262554 0.27119857 -1.5141907 -1.1040219 -1.2510514 -1.1676334
-0.76630276 -1.5680655 1.1565064 0.3239518 -0.05620514 0.19965503 1.2604039 -0.2631172

features.4.bias f4 [32]
00000000: 0012 40bd 204c 3fbd c009 debd 78f9 d93e
00000010: e851 ff3d 980a f0bd 7813 6f3d 64c9 6b3f
00000020: 5ee0 9fbe c509 2cbf edd2 253f 6525 323f
00000030: 508b 9a3f 2e89 0f40 d865 653f d318 f03e
00000040: e475 cd3d 6552 d83e 8bb1 ee3f 602c a6be
00000050: 1cbd 53bf 0dd8 873e 6cf8 d3bd 7800 8c3f
00000060: b43a cb3d 0a9d 0f3f 657e c93e 70a1 17be
00000070: e4e3 153f 8a6d 6b3e 22fe 143e 03da 9f3e
-0.046892166 -0.046703458 -0.108417034 0.42573142 0.12466794 -0.117207706 0.058368176 0.9210417
-0.31225866 -0.6720241 0.6477497 0.6958831 1.2073765 2.2427478 0.89608526 0.4689394
0.100322515 0.42250362 1.8647932 -0.3245573 -0.82710433 0.2653202 -0.10350117 1.0937643
0.09923306 0.56099 0.39354244 -0.14807677 0.5855086 0.22991005 0.14550069 0.31221017

features.8.bias f4 [64]
00000000: 3015 2a3f c4de 183f f518 bb3e 0632 d9be
00000010: 5c66 063f 0af4 823f 7ad7 673f 6738 2a3f
00000020: fd0a c33e b276 0d3f 6613 3a3f 8ddc 283f
00000030: e6fb a3be edd0 2d3f 4836 e8be e55a bd3f
00000040: 6793 893f f4e1 bb3e 6630 1cbf 87d3 a63f
00000050: bc75 803f df79 813f d005 8c3f 0b60 b13f
00000060: 9422 7abe 2505 a13e 980d 7a3e fd17 e43e
00000070: f578 a3be 9d64 893e 10de 3a3e 70f2 d13f
00000080: ae40 763f f3f5 613f 60ee 223c da96 4a3f
00000090: cc4e 173e 08d1 263f 8293 0a3f 261a 643f
000000a0: 4af9 993f fc30 013f 7aa9 18be 4045 92bb
000000b0: 0118 a53e 97dc 933f c4a9 493f a813 b9bf
000000c0: d830 183f 239a 2e3f 0a5d be3e 829e 133f
000000d0: 5840 5e3f 98ea 033f 4143 6b3f 886f a63e
000000e0: 9dbf 493f 1cc4 bc3e af49 b13f 4c9b 243e
000000f0: f6be 573f 8396 30bf 6822 573f 8bbf a43e
0.6643858 0.59714913 0.36542478 -0.42420977 0.5249994 1.0230725 0.90563166 0.66492313
0.3809432 0.5525924 0.7268585 0.65961534 -0.3202812 0.6789692 -0.45353913 1.4793364
1.0748109 0.36695826 -0.6101135 1.3033303 1.003593 1.0115317 1.0939274 1.3857435
-0.24427253 0.31449237 0.24419248 0.44549552 -0.3192822 0.26834574 0.18248773 1.6402111
0.96192443 0.88265914 0.009944528 0.7913643 0.14776152 0.65162706 0.5413133 0.891024
1.2029202 0.5046537 -0.149084 -0.0044638216 0.32244876 1.1551694 0.78774667 -1.4459124
0.5944953 0.68203944 0.37180358 0.5766374 0.8681693 0.51529837 0.91899496 0.32506967
0.78808004 0.3686837 1.3850611 0.16074866 0.8427576 -0.6897966 0.84036875 0.32177386

classifier.2.bias f4 [10]
00000000: aca4 e63c 413a ce3d 9408 0bbd 727d 793d
00000010: e8ea 0fbd 0142 49bd a93b f9bc db62 87bc
00000020: b518 46bc ccab 3f3d
0.028154694 0.10069705 -0.033943728 0.06091065 -0.035136133 -0.04913521 -0.030423956 -0.01652663
-0.012090852 0.046794698

features.4.weight f4 [32, 16, 3, 3]
00000000: 98b7 303a 6d6b 593c e378 3b3d 6b4e 8a3d
00000010: dad8 103d 6cf3 b7bb aeb9 38bb febb 8d3d
00000020: f8e8 a63d 04b5 af3c e81b de3d e21d 063e
00000030: 403f dc3d 17ba 273e 85ba 993d 0c2e 823d
00000040: 3080 143d ada2 10bd b772 ccbc 6d9c d93d
00000050: e4f0 47bd bd2f 813c e3df 88bd 71cd 3c3d
00000060: 6c0d 44bc 35b0 43be 297e d7bd bab1 c83c
00000070: 4c01 513d fbfc 8c3d 2f21 17be 5f28 d3bd
00000080: 2ce5 953d d536 37be dd38 c7bd 7ab5 143c
00000090: f190 43be d5e2 c43b f699 6f3c 4a4e 81be
000000a0: b987 59be 016b dcbb bd55 64be 5037 a8bd
000000b0: 62d2 c13d 78ea cc3d 1c0f 173e 429d 8f3d
000000c0: f24e 103d ede2 a3bd 5702 e9bd e737 14be
000000d0: 7c4a 11be 5f04 b3bd a916 2a3e cec8 95ba
000000e0: 5ae2 8fbd f048 853e 5522 113e c9fb b4bd
000000f0: d2b6 803e 9b31 f03c 74ac d8bd 3bd0 efbc
00000100: 9db4 00be dad2 cabd 0e8c 05be e98f 3fbe
00000110: 5fb7 cfbd 0f54 de3b d337 8d3a 3f5f 21bd
00000120: 8ad6 c4bc 9f3a 80bc d39f 23bd d813 1e3d
00000130: 50f7 243e 0faa 6f3c f444 5b3e 71b7 2d3e
00000140: 27ae aaba 0eb3 633d b381 d53d 6244 81bd
00000150: 3f56 403c fc1d 963b fc53 19be 1bd8 00be
00000160: 355d 10be 587b f1bd 53a3 993d e899 d33c
00000170: c245 f8bc abf8 21bd 6ffa a1bc 1384 d9bc
00000180: 0c24 07be bb3c dc3c 429a b5bd cd2d 263c
00000190: 6cdb 983d 81f1 083d 734e 983d bbd8 9f3d
000001a0: 9208 153d 587f 9f3d 335e 1e3e 1160 413d
000001b0: a975 6bbd 0ce2 253c 4deb 813d 5c0e debd
000001c0: 6396 ddbc 9b6a fd3d b158 993c ce3f de3c
000001d0: 04bf 443e d35c cfbd 61b0 c5bc 5a81 673d
000001e0: 7111 4bbd 257f cfbd e049 b33d 27a6 38bd
000001f0: a9ed e43c a0ac 003e 5ef7 6cbd c7dd 2dbd
00000200: 0367 0dbd 2b90 71bd fa2c 9fbd 15cf 59be
00000210: e5f1 f7bc 6e50 e8bd 1030 2d3c 816a 3bbd
00000220: af9c 243d 64eb 0d3d 0743 3a3d c297 223e
00000230: 5bee 813d 65a5 313e 3092 553d 852b c9bb
00000240: e0ce 4ebd 6a40 713d f563 20be b5fb 38bd
00000250: 26f8 313d 79c5 f0bc 7a9f 86bd 57b2 143d
00000260: 395c b53b df63 8f3d ed90 92bc eb05 84bd
00000270: da7d 003d 1ed4 573d 7026 16bd 89d5 293d
00000280: 54f6 e1bc ed36 8ebd 8381 efbc 6119 d1bc
00000290: 82b1 03be 056f 593d bed0 dbbd b8e7 00be
000002a0: 611e 453d ccb9 98bc 3535 00be b8b8 65bd
000002b0: b200 cfbd 231a 28be 8201 a5bb eed8 31bc
000002c0: 86f0 ccbd 08b9 a0bd 09d6 45bd 6bb0 c0bb
000002d0: 3e5c 67bd 3819 ddbd 1a70 99bd ab88 3ebc
000002e0: 3dd7 973c 2174 4a3d 44c7 43be bf12 e4bc
000002f0: baa3 e93c 08a4 a13d 440c 99bc 1bd5 bbbd
00000300: 30d9 d8bd a1d8 203c 890a 31bc 47a0 17be
00000310: 37cb 55bd af2e 05be 6ccb 983d d8f0 1c3e
00000320: 3cbb 0d3e 167e 063e f404 ef3d 46b8 da3d
00000330: ad44 20bb a14f 153e 847b ee3d 111f ddbd
00000340: d8ef 2c3d 8c4f 2fbb 5996 0bbe 8199 0a3e
00000350: a944 61bc 7f3d a0bd c6f8 aebc 36f8 e4bb
00000360: 2813 d53d 0935 b1bc 886a 8c3d db1e ae3d
00000370: 4939 c6bb b054 be3d 8019 f13d 41b6 833d
00000380: 9f5c d23d 0751 093e 2991 2dbd 0161 8fbd
00000390: 5e14 573e aec7 113e de4b c63d 761a 593e
000003a0: 9f57 8d3d c749 313d 8bb7 79bd 414e 83bb
000003b0: ef44 a53c 0e51 efbc 6235 7abd f23b 97bc
000003c0: 0386 05be a7a1 fbbc 0813 bb3c d697 c1ba
000003d0: d671 c53d 310d 533d a02a 27bd 13a3 9b3d
000003e0: 287d cf3d 2298 a9bb 1f71 4a3c 421c 623d
000003f0: 868c 45bd 3be4 97bd 226c 743c 4745 15be
0.0006741225 0.013270241 0.045769583 0.06753238 0.035363056 -0.005613735 -0.0028186846 0.06920622
0.08149904 0.02144862 0.108451664 0.13097337 0.107542515 0.16379581 0.07506279 0.06356439
0.03625506 -0.03531139 -0.024957044 0.10625539 -0.048813716 0.015769834 -0.06683328 0.04609436
-0.011966091 -0.19110186 -0.1052211 0.02449881 0.051026627 0.0688419 -0.14758752 -0.103104346
0.07319102 -0.1789201 -0.09727643 0.0090764705 -0.1909826 0.006008486 0.0146241095 -0.25255042
-0.2124318 -0.006726623 -0.22298332 -0.08213675 0.094639555 0.10005659 0.14751858 0.070124164
0.035231538 -0.08002267 -0.113773994 -0.1447445 -0.1418857 -0.08741068 0.16610207 -0.0011427642
-0.07025595 0.2603221 0.14173253 -0.08837087 0.2513948 0.029320529 -0.10579768 -0.029274097
-0.12568898 -0.09903498 -0.13041708 -0.18707241 -0.10142397 0.006784923 0.0010774083 -0.039397474
-0.024028081 -0.015652953 -0.039947342 0.038593143 0.16109967 0.0146279475 0.21413022 0.16964509
-0.0013021872 0.05559068 0.10425129 -0.06311871 0.011739313 0.004581211 -0.14973444 -0.12582438
-0.14098056 -0.11791104 0.07501855 0.025830224 -0.0303067 -0.03954379 -0.019772736 -0.026552236
-0.13197345 0.026884427 -0.08867313 0.010142756 0.074637264 0.03343344 0.07436838 0.0780501
0.036385126 0.07787961 0.15465622 0.047210757 -0.057485256 0.010124695 0.06343708 -0.108425826
-0.027049249 0.12373849 0.01871905 0.027130034 0.19213492 -0.10125127 -0.024131956 0.056519844
-0.04957718 -0.10131673 0.08754325 -0.04508033 0.027945356 0.12565851 -0.057853095 -0.04244783
-0.034522068 -0.05897538 -0.077722505 -0.21270402 -0.030266711 -0.11343466 0.010570541 -0.045755867
0.040188488 0.034648314 0.04547408 0.15878204 0.06344291 0.1734825 0.05214137 -0.006139221
-0.05049026 0.05889932 -0.1566313 -0.04516192 0.043449543 -0.029391037 -0.065733865 0.03630289
0.0055346754 0.07001471 -0.017891372 -0.06446441 0.03137002 0.052692525 -0.03665775 0.04146341
-0.027583279 -0.0694407 -0.02923656 -0.025524797 -0.12860683 0.053084392 -0.10733174 -0.12588394
0.048124675 -0.018643282 -0.12520297 -0.056084365 -0.101075545 -0.1641622 -0.00503558 -0.010854943
-0.10006814 -0.07847792 -0.048299823 -0.0058804057 -0.056484453 -0.10795826 -0.07492085 -0.011629264
0.01853525 0.049427155 -0.19118983 -0.02784097 0.028520454 0.078926146 -0.018682607 -0.09171506
-0.105883 0.009817273 -0.010805734 -0.14807235 -0.052195754 -0.1300609 0.07460675 0.1532625
0.13840955 0.13134035 0.116708666 0.106796786 -0.0024454996 0.14581157 0.116446525 -0.10796941
0.04222092 -0.0026750294 -0.13631572 0.1353512 -0.01374928 -0.078242294 -0.021358859 -0.006987597
0.104040444 -0.021631734 0.06856257 0.08501979 -0.0060493094 0.092934966 0.11772442 0.064312465
0.10271572 0.13409816 -0.042374764 -0.07000924 0.21003863 0.14236328 0.09682439 0.212015
0.06901478 0.04328325 -0.060966056 -0.0040071313 0.020174472 -0.029213455 -0.061086066 -0.018461201
-0.13039403 -0.03071673 0.022836223 -0.0014769982 0.09640853 0.051526252 -0.040812135 0.07599463
0.101312935 -0.0051756063 0.012356072 0.05520273 -0.048229717 -0.074165784 0.014918359 -0.14577208

features.8.weight f4 [64, 32, 3, 3]
00000000: b1c7 fabb d5b8 833c 7146 0e3c 43eb be3d
00000010: ee38 25bc 9665 a8bb 360c 623d 7114 1c3b
00000020: f6e0 57bd 126f a43d 81bb 913c 6c94 553d
00000030: 888d b43d 56b7 663d ef2a 0d3d 08cf ab3d
00000040: 34c8 d43d 708e 553d f534 9e3c f0ed 283b
00000050: 9178 01bd 8220 9cbb 3e3c a5bd 2bd9 6abd
00000060: bc47 80bd f6f6 08be 34de a8bd a7f5 5dbd
00000070: 8232 b8bd b473 91bc 1163 03be 1b78 4ebb
00000080: 21a3 83bd 7427 adbd 9f49 80bc 7ab8 a9bc
00000090: cc59 a8bc 9fe1 4bbd 06d1 a0bd 2902 b43d
000000a0: 0efb 133e d11b 3d3d bbbc 13bc 580b c53d
000000b0: 83d8 e93d 6e2f cfba 5827 3bbd 326f 323b
000000c0: b0fa 37bd 56ec 4fbc bd86 57bc d947 1abb
000000d0: f131 8a3c 57c4 7ebd 2ba5 a7bb b3e7 97bd
000000e0: e84e 66be e742 71bd a689 a8bd aff2 d7bd
000000f0: 520b e7bd 8328 dbbd 2475 9fbd 0657 43bd
00000100: 46f1 533d ed9f 2ebb 29b5 8abc 47ff bcbc
00000110: 4579 0cbd fd1a 4abd 7c29 d3bd 4c98 f3ba
00000120: 048e 543d e7c9 333c 64e8 8ebd 2fe0 4dbd
00000130: 80b4 e2bb b3eb f5bd 9a39 abbd d31f 84bd
00000140: 9100 31be 6023 233c 374c 35bd b5a2 623c
00000150: 9db8 263d 595b 1bbd 18f3 c5bc 88b3 2dbd
00000160: 1b12 993c 34a7 bfbc 45c4 8d3c 1450 143d
00000170: 4cc5 13bd 408c d63d faf5 d93b f0e2 d3bb
00000180: f7b4 263d b266 903a 7217 193d 5b52 133e
00000190: c148 41bd 04c8 27bd 87fb 8e3d 72ba 47bd
000001a0: fb5e 17be 4018 e33c 24ab 61bd 6c30 6ebd
000001b0: 3e7b fe3d 4774 a93d 42fa 31bc cab7 b23d
000001c0: 5d1e 67bd 0740 283a 8591 813c 35ec 35be
000001d0: 9a5b c6bd 1b1c 73bd 498a 1fbd 8169 da3c
000001e0: cd7a efbd ca57 62bd 095c c23c 1b64 f5bd
000001f0: d6b5 b7bd 75f0 b5bd a307 65bd 108b 66bc
00000200: 0508 1ebe 6ccd 2e3d 6710 f03d 6f61 9a3d
00000210: a906 48bd 4c17 89bd 9a7c 763d 0bbc 3dbc
00000220: 9def 1b3d 4e41 fabb 0080 473d 8dca dfbd
00000230: 0640 07be 2441 47bb 7c5c f0bc 329f 9dbd
00000240: 81d7 bc3d 6991 243c 9111 dabc 5f9d 323e
00000250: 9eb0 273e cb13 533d 1278 443e 72c0 2e3e
00000260: 3459 e33c cb97 ce3c 3d13 bcbd 7c4e 1abe
00000270: 3a5f aabd 003d 46bd 2416 1abe 8107 33bd
00000280: 2c96 c8bd f416 7fbd 5dab 15bc 7bd9 403d
00000290: 48ce 6a3d 4db6 833d e385 073e 04dd 293d
000002a0: bba7 b03c 3632 df3c af61 bc3d 6120 a5bd
000002b0: 5627 09be 39d2 01be 6bcf bfbd 4ddd 95bb
000002c0: 8874 fabd 58fc 04bd ef70 42bd 8e15 f4bd
000002d0: e358 9dbb fe1d 773d ad98 9f3d d72d f53d
000002e0: 13c3 2e3d d309 243d 32b1 973d eb43 8ebd
000002f0: 1aa6 51bd 66f1 a5bd c4dc 8cbc 0e51 b4bd
00000300: 2d02 15be 61b8 233c 2e8d 5cbd 0eec 8ebd
00000310: 097a 08be 32f0 03be f063 59bc 84d2 6f3d
00000320: 9902 d03d 9eb8 ae3a bf24 743d a30f d43d
00000330: 3643 9a3c e86a 8abd 9c89 df3d 89e4 80bd
00000340: 24cf 993d 76e8 743c b795 24bd b5fd dd3d
00000350: 6dc0 48bd 9d5f 10bc c03c 25bc 26ff 4fbd
00000360: 5f95 ecbc 697a dc3c a736 c9bd b9e1 1a3d
00000370: 64e5 f93d fa48 20be 2822 a5bd 44e3 23bd
00000380: a69f bbbd c6dc 93bc b168 afbd a51d 083d
00000390: ad1c f7bc b6b2 d1bc 5b5a da3c f7da 293d
000003a0: fd4a 01bc 30f7 32bd 61e1 403e 914b 2d3e
000003b0: 296e ea3d 9669 ba3d a4fd eb3d 19e7 0aba
000003c0: 57df 093e 4317 393e 9b86 db3d 443e aebd
000003d0: 83b9 04bd 44c9 f5bd d484 583d c69c 433d
000003e0: 4dba e2bc 2eed d63d f581 663d 070f a5bc
000003f0: e6d2 153d 717b 5b3c 9a89 8dbd c07f 083d
-0.0076531996 0.016079346 0.008683787 0.09322216 -0.010084374 -0.005139063 0.055187427 0.0023815895
-0.052704774 0.080289975 0.017789604 0.0521435 0.088160574 0.056327187 0.034464773 0.083890975
0.10389748 0.052137792 0.019312361 0.0025776587 -0.03160912 -0.0047646174 -0.08068131 -0.057336014
-0.06263682 -0.13375458 -0.08245507 -0.05418935 -0.089940086 -0.017755367 -0.1283076 -0.0031504694
-0.06427599 -0.08454791 -0.015660105 -0.020717848 -0.020550631 -0.049775716 -0.07852368 0.087894745
0.14451239 0.046169106 -0.009017165 0.09621304 0.114182495 -0.0015806982 -0.045691818 0.0027226922
-0.04491681 -0.012690624 -0.013154683 -0.002354136 0.016869517 -0.062198963 -0.005116125 -0.0741724
-0.22491038 -0.058901694 -0.08229379 -0.10544335 -0.11281456 -0.10701086 -0.07786015 -0.047690414
0.05174377 -0.0026645616 -0.016932087 -0.023070944 -0.03429534 -0.049342144 -0.10310647 -0.0018584817
0.05189325 0.01097343 -0.06977919 -0.050262626 -0.00691849 -0.12007847 -0.08360596 -0.064513825
-0.17285372 0.0099571645 -0.044262137 0.013832738 0.040703405 -0.037928913 -0.024163768 -0.042407542
0.018685391 -0.023395158 0.017305503 0.03620918 -0.03607683 0.10475969 0.006651637 -0.006466262
0.040699925 0.0011016934 0.037375875 0.14386885 -0.047188524 -0.040962234 0.06981569 -0.048761792
-0.14782326 0.027721524 -0.055094853 -0.058151647 0.1242585 0.08274131 -0.010862889 0.08726461
-0.05642544 0.0006418232 0.01581646 -0.17765887 -0.0968544 -0.059352975 -0.03895024 0.026661636
-0.11693344 -0.055259503 0.023725526 -0.11981984 -0.08970229 -0.08883754 -0.055915486 -0.014071241
-0.15432747 0.042676374 0.117218785 0.07538115 -0.048834477 -0.06693897 0.060177423 -0.0115804775
0.03807031 -0.0076371795 0.048706055 -0.10927305 -0.13208017 -0.0030403817 -0.029340975 -0.0769638
0.092207916 0.010044434 -0.026619704 0.17442845 0.16375968 0.051532548 0.19186428 0.170656
0.027752496 0.025218865 -0.09183357 -0.15069002 -0.08318944 -0.048398018 -0.15047508 -0.04370833
-0.09794268 -0.06227775 -0.0091350945 0.047082406 0.05732563 0.064312555 0.13234667 0.041470543
0.021564355 0.027245622 0.09198319 -0.080628164 -0.13393912 -0.1267785 -0.09365734 -0.0045735002
-0.12229258 -0.032467216 -0.047470983 -0.11918174 -0.004801856 0.060331337 0.077927925 0.11971634
0.042666506 0.04004843 0.07406844 -0.06946548 -0.051183797 -0.08102684 -0.017195113 -0.088045225
-0.14551611 0.00999269 -0.053845577 -0.069786176 -0.13327803 -0.12884596 -0.013268456 0.058550373
0.101567455 0.0013330167 0.059605356 0.10354545 0.018830877 -0.06758672 0.10914919 -0.062935896
0.07510212 0.014948001 -0.04018184 0.108394064 -0.049011637 -0.0088118585 -0.010085285 -0.050780438
-0.02887982 0.026913838 -0.09824877 0.037812922 0.12201956 -0.15652838 -0.080631554 -0.04001166
-0.0916131 -0.018049609 -0.0856489 0.033231396 -0.03016504 -0.025597911 0.026654413 0.041468587
-0.007891414 -0.043692768 0.18835975 0.16923358 0.11446793 0.0910217 0.115229875 -0.00052987185
0.13464104 0.1807528 0.10719033 -0.0850797 -0.03240348 -0.12001279 0.05286105 0.047756933
-0.027676726 0.10494457 0.05627628 -0.020148767 0.03657808 0.01339613 -0.06911011 0.033324957

classifier.2.weight f4 [10, 576]
00000000: 1aca 98bd fa8a 233d eb3e 663d 7c73 053e
00000010: 54d5 163e 964f 1a3d d14f 183d 06d9 8f3d
00000020: 3220 e1bd 23b1 1f3d 6b45 433c dd2a 4c3d
00000030: 2275 2dbe 10d6 043c e3af 553d a18d abbd
00000040: 9380 2cbd dd73 c5bd c65b 75bd cb6e 0cbc
00000050: b1cb d73c 7d75 c93d 8595 e43c a5f9 363d
00000060: beaa 493d 4a50 6c3d 5d2b 163d 2537 e3bb
00000070: a8d1 853c 8bc6 83bd c0c1 b33c 414e 6abd
00000080: 0179 87ba b78e b3bd 8e1e 6ebd 9624 d83c
00000090: 70b8 acbd 81eb 423d 9bcf 863c e556 9b3c
000000a0: fc3e b7bb 9c18 d43c 4ff8 8d3c dd01 e1bd
000000b0: 03b1 dcbd 4460 f73c 3762 d13c aad9 11bd
000000c0: 7b5a b23d 8fcf 013d 723e 89bd 0416 203e
000000d0: 6da9 173e 1d89 ac3d b44c c13c 0a9e 453c
000000e0: f673 d33d 3598 233d e4e5 bd3d 073e c83d
000000f0: 1d07 4a3d a9b0 dabd 36c8 98bd 2ee4 ba3d
00000100: faa6 693d f3d3 b3bd 9924 e43b 8d02 193e
00000110: e209 203e 4a60 5eb8 8d75 e83d 83e8 9a3d
00000120: f718 223c baec 26bd 4232 11be 0b3d b3bc
00000130: 5d31 8e3c a88d 033c 9c7b 683c 23cd 263d
00000140: 15ff a43d 2375 bf3d 0f8a 93bd ccff 0cbe
00000150: ddea ed3d ff3b 53bd b8b8 69bd 2279 aa3d
00000160: 2a8e bebc eb9a 15bd 4d66 e4bc 901b a3bc
00000170: 119d 5c3c df70 80bc f256 dbbb 84c5 b93d
00000180: af7b 1abe 2b5c 1fbe 87cc 003d fd87 89bd
00000190: 1ccc 013e 905d f03d d5f9 0d3d cb49 ad3d
000001a0: 25b1 8e3d 6dde 803d 835d 803d 784c b0bc
000001b0: 9ef3 89bd c841 6cbc 47e5 963c 83f7 c8bd
000001c0: ee45 e7bb 5af3 293d 08dd 72be d5c9 63bd
000001d0: f509 18be be64 41be 8409 093e 803b 6c3e
000001e0: c62a be3c a575 e53d bb1e e33d 8f07 743d
000001f0: a37a 59bc a0f3 88bd 4581 c2bd 9312 d8bd
00000200: c15f 82bc 2749 a3bc 9331 67bd 2ab3 423c
00000210: a7fa dcbc dbde 2fbe 9a71 c3bc 4a05 91bc
00000220: 5d8f 65bc 4b70 1d3d dddf a23c 7e9c bbbb
00000230: b8ef 1bbe faeb 9e3c b570 64bc 0e7b fabd
00000240: 4a38 5dbd 0381 b8b9 e793 97bd e804 013e
00000250: e45a c23d 10ea 7c3c d7ee 91ba 7b8c 1bbd
00000260: af36 c9bd c80b 763c 236f 3cbd 1873 3bbd
00000270: 5203 b7bc 41d8 acbd d463 dfbd 89ea 0cbd
00000280: c812 b93c 21bd d3bd 2d6c 32bd d33d 0dbe
00000290: 5b60 6b3d 9856 f1bc 657b 13be a88b 183d
000002a0: 2a1c 23be 8537 5abe 6639 8fbc bb7a f3bb
000002b0: d06c 2bbc d881 3fbc 1bd1 543d a287 9f3d
000002c0: 3389 903d 3e43 153e 90ae 113e 3f72 4abd
000002d0: af5d a23d 64bb 6f3d cdcc 223c bb65 b23d
000002e0: e442 613d c9ba 45bc 3e0c 413d 0b35 383d
000002f0: f310 20be 1432 98bd 07da c4bc abf9 27bc
00000300: b3ea 9dbd 7ff6 9cbd 8251 b5bd 912a ac3c
00000310: 6210 e0bd bf5d 3cbe fe0f 1abd 65b1 8bbd
00000320: baab a0bc 97b8 b43c b6e1 8e3c bb62 1b3d
00000330: e6d0 b139 dc34 9c3c d5d8 c23d c178 13bd
00000340: 8fa4 a83b bc63 c13c 56ae 1e3d 2b40 d23c
00000350: e7c9 bb3d fa4e 883c c4fe 9a3d 2b0e d93d
00000360: d14b 26bd 2e43 443d b8ad 643d 94c0 13be
00000370: efe3 0fbc 07d4 c63d 9a7e f73c cd16 443d
00000380: 693e 793d 40c3 4bbd dc56 29bc 7886 88bc
00000390: 6411 f6bd d526 febc 99fe 9b3a 4af8 993c
000003a0: d191 173d 755e 0a3d c4a0 f3bd 813f 82bd
000003b0: adf8 c63d 5eab 1dbc 7574 593d 1e2d 893d
000003c0: 4adb e43c eacf ecbc fadc 88be c318 adbd
000003d0: 09fc 7a3d 0738 943d 055d edbd 3a4e 0cbc
000003e0: d684 2f3c 4328 37bd deeb 25bc 92ea 11be
000003f0: 6ce6 823d 4fe3 723d c12d 923d 0663 4f3d
-0.07460423 0.03992746 0.056212347 0.13032335 0.14729816 0.037673555 0.037185494 0.07023816
-0.10992469 0.03898729 0.011918406 0.049845565 -0.16939214 0.008107677 0.05216969 -0.08376623
-0.042114805 -0.0964124 -0.059901975 -0.008571337 0.026342245 0.09836862 0.027903328 0.044671673
0.049235098 0.057693757 0.03666245 -0.006934064 0.016335323 -0.064343534 0.021942973 -0.057203535
-0.0010335745 -0.08767455 -0.058134608 0.026384633 -0.08433616 0.047587875 0.016456416 0.018962333
-0.005592225 0.02589064 0.017330317 -0.109866835 -0.1077595 0.03019727 0.025559528 -0.03560797
0.08708664 0.031692084 -0.067013636 0.15633398 0.14810725 0.0842459 0.023596145 0.012061605
0.10324852 0.039940078 0.09272364 0.09777456 0.04932319 -0.106782265 -0.07460062 0.09125553
0.057044007 -0.087806605 0.0069623706 0.1494238 0.1562877 -5.30186e-05 0.11350546 0.07563879
0.009893647 -0.040753104 -0.14179328 -0.021879693 0.017357523 0.008029379 0.014189627 0.040722977
0.080564655 0.09348514 -0.07204067 -0.13769454 0.11617062 -0.05157089 -0.057060927 0.083238855
-0.023261148 -0.036524694 -0.027880812 -0.019910604 0.013465182 -0.015678821 -0.0066937143 0.09070876
-0.15086244 -0.15562503 0.031445052 -0.06715391 0.12675518 0.11736596 0.034662087 0.084613405
0.069673814 0.06292424 0.06267836 -0.021520838 -0.067359194 -0.01441998 0.018419875 -0.09812834
-0.007057897 0.041491844 -0.23717129 -0.055612404 -0.14847548 -0.18886086 0.13382536 0.23069572
0.023213755 0.112040795 0.11089846 0.05957752 -0.013273868 -0.06687093 -0.094973125 -0.10550418
-0.0159148 -0.019932343 -0.056443762 0.011883536 -0.02697499 -0.17174856 -0.02385788 -0.017702717
-0.014011231 0.03843717 0.019882137 -0.0057254424 -0.15228164 0.019399632 -0.013942887 -0.12230502
-0.05400876 -0.00035191336 -0.07401257 0.12599528 0.09489992 0.015436664 -0.0011133802 -0.03797577
-0.09824883 0.015017457 -0.046004426 -0.04576406 -0.02234045 -0.08439685 -0.109077126 -0.034403358
0.022591963 -0.10338808 -0.043560196 -0.13793115 0.05746494 -0.029460236 -0.1440254 0.03724256
-0.15928712 -0.21310242 -0.017483424 -0.007430402 -0.010462955 -0.011688672 0.05195723 0.07789542
0.07057419 0.14576432 0.14226747 -0.04942536 0.07928025 0.05852832 0.009936524 0.0871081
0.054995432 -0.012068459 0.047130816 0.04497246 -0.15631466 -0.07431427 -0.024029745 -0.010252397
-0.07710781 -0.07664203 -0.08853437 0.021016391 -0.10940625 -0.18395136 -0.037612908 -0.06820945
-0.019613136 0.022060676 0.017441612 0.037935954 0.00033915712 0.019068174 0.09514014 -0.03600383
0.00514657 0.023607127 0.03874048 0.025665363 0.09169369 0.016639221 0.07568124 0.105984055
-0.040599648 0.04791563 0.055829734 -0.14428931 -0.008782371 0.0970841 0.030211736 0.047873307
0.060850535 -0.04974675 -0.01033565 -0.016665682 -0.12015036 -0.031024376 0.0011901438 0.018795151
0.037004296 0.033781487 -0.11895898 -0.06359769 0.097154 -0.009623377 0.053089578 0.066980585
0.027936596 -0.028907735 -0.26731092 -0.084519885 0.061275516 0.07237249 -0.11590008 -0.008563573
0.010712823 -0.04471613 -0.010127036 -0.14249638 0.06391606 0.05929881 0.07137633 0.050631545
