model/digit_cnn.pt (torch, 126040 bytes, 20 tensors)

features.0.weight f4 [16, 1, 3, 3]
0.2312232 0.22161578 -0.009355568 0.18418148 0.121046044 0.16109553 -0.45475584 0.06893892
0.078829974 -0.15957391 0.19329421 0.02745741 -0.3825133 0.36270398 -0.11976309 0.05393791
0.23778203 -0.057860028 -0.14065215 -0.160224 0.02446292 -0.17053327 -0.06505121 0.23153281
-0.056509327 0.18988481 0.13114838 -0.26176447 -0.16332142 0.05922657 -0.11249041 0.21488495
0.27715048 0.28043061 0.14073022 -0.18883681 0.014437868 0.16979438 -0.007194597 -0.16171998
-0.18675782 -0.3189504 -0.09400041 -0.08534466 0.11630387 0.077826 0.25955757 -0.26885784
0.31950596 -0.09365815 -0.30154768 -0.19162184 -0.29361483 -0.07261888 -0.012432915 -0.14341605
-0.21280585 0.22816396 -0.033868033 -0.2637851 0.3291921 -0.23204878 -0.23892333 -0.33133304
-0.25260198 0.02783748 9.0850604e-05 -0.076894164 -0.37221628 0.2959116 -0.015380223 0.24665225
-0.29350343 0.19133025 0.1433076 -0.2272069 -0.017924242 0.13401324 -0.20520659 -0.13541141
0.15771551 0.19111706 -0.4179106 -0.10961057 -0.024316814 -0.44137338 0.23455036 -0.3297844
-0.17070495 -0.1584111 0.342333 0.08565609 0.18129827 0.34407598 0.1001037 0.21832284
0.285604 0.27646697 -0.22650692 0.069627084 0.29669577 -0.38064465 0.11740197 0.2046452
-0.26761925 -0.004492267 0.0076803053 0.15523162 0.1500813 -0.3500194 -0.27572262 0.029505784
0.010894685 -0.18862937 -0.035094876 0.40534267 0.23863713 -0.022872183 -0.283796 0.15091172
0.18063618 0.31511968 0.07565688 -0.038368635 -0.17020157 -0.1622277 0.0047158306 0.23932151
0.14413394 0.08728825 0.22181039 0.13449512 0.2540872 0.19151853 0.066418946 0.19511689
0.019201837 -0.2708352 0.009305949 -0.17930311 -0.18581273 0.31251788 0.1843984 -0.103051096
00000000: c6c5 6c3e 3fef 623e 1948 19bc 129a 3c3e
00000010: fde6 f73d 3af6 243e c2d5 e8be d92f 8d3d
00000020: 9c71 a13d 5867 23be ebee 453e 5dee e03c
00000030: c9d8 c3be 56b4 b93e 5a46 f5bd ffed 5c3d
00000040: 227d 733e a3fe 6cbd 1e07 10be c311 24be
00000050: 7666 c83c 46a0 2ebe 9239 85bd f016 6d3e
00000060: 5376 67bd 2a71 423e c34b 063e fe05 86be
00000070: bb3d 27be 8f97 723d 5f61 e6bd cd0a 5c3e
00000080: abe6 8d3e 9a94 8f3e 951b 103e 705e 41be
00000090: cf8c 6c3c 94de 2d3e a7c0 ebbb ec99 25be
000000a0: 713d 3fbe 784d a3be 4983 c0bd 2ec9 aebd
000000b0: b930 ee3d 3d63 9f3d bbe4 843e bca7 89be
000000c0: 4996 a33e d8cf bfbd 7564 9abe 8438 44be
000000d0: af54 96be 35b9 94bd 6db3 4bbc a8db 12be
000000e0: c7e9 59be d0a3 693e 35b9 0abd d70e 87be
000000f0: de8b a83e 329e 6dbe 51a8 74be 7ca4 a9be
00000100: 0c55 81be 6d0b e43c 0c87 be38 b07a 9dbd
00000110: 2293 bebe ba81 973e 55fd 7bbc 6892 7c3e
00000120: 1546 96be 14ec 433e 3abf 123e eda8 68be
00000130: dcd5 92bc c43a 093e ad21 52be 4aa9 0abe
00000140: 2d80 213e 31b4 433e 61f8 d5be 827b e0bd
00000150: 0e34 c7bc b1fb e1be f82d 703e 80d9 a8be
00000160: 47cd 2ebe 8536 22be 4546 af3e 766c af3d
00000170: 41a6 393e ba2a b03e 2b03 cd3d 0690 5f3e
00000180: b03a 923e 148d 8d3e 6ef1 67be a598 8e3d
00000190: 82e8 973e dbe3 c2be 7270 f03d 838e 513e
000001a0: 6405 89be de33 93bb 12ab fb3b 0af5 1e3e
000001b0: eaae 193e be35 b3be 842b 8dbe 1db6 f13c
000001c0: 9f7f 323c 0f28 41be a5bf 0fbd 1389 cf3e
000001d0: 4b5d 743e 725e bbbc b64d 91be 9a88 1a3e
000001e0: b1f8 383e 5e57 a13e fff1 9a3d 6e28 1dbd
000001f0: 5249 2ebe 051f 26be 4187 9a3b b310 753e
00000200: d997 133e 2fc4 b23d 4322 633e 17b9 093e
00000210: b817 823e 6f1d 443e a806 883d b9cc 473e
00000220: 2c4d 9d3c e9aa 8abe fb77 183c 3c9b 37be
00000230: b145 3ebe 5802 a03e efd2 3c3e 740c d3bd

features.0.bias f4 [16]
0.39940178 0.37119967 -0.30715546 0.17669837 -0.15455441 -0.13219081 0.36943355 -0.28537807
-0.20445937 -0.089842774 0.027881432 -0.07083402 -0.2892291 0.017379126 0.014537881 0.17617159
00000000: 647e cc3e e20d be3e 7b43 9dbe 6bf0 343e
00000010: 8343 1ebe 075d 07be 6526 bd3e 131d 92be
00000020: cc5d 51be 7dff b7bd 9a67 e43c 6d11 91bd
00000030: d615 94be ab5e 8e3c 4b30 6e3c 5366 343e

features.1.weight f4 [16]
0.93289196 0.8426718 1.0260091 0.8643295 1.2576506 1.2692034 1.2356654 1.0826055
1.1779307 1.2524382 0.89079624 0.86979985 1.0182303 0.87534755 0.9295497 0.9937397
00000000: 02d2 6e3f 57b9 573f 4454 833f b344 5d3f
00000010: b2fa a03f 4275 a23f 492a 9e3f d192 8a3f
00000020: 6fc6 963f e54f a03f 390b 643f 34ab 5e3f
00000030: 5f55 823f c716 603f f8f6 6d3f ba65 7e3f

features.1.bias f4 [16]
-0.061233778 -0.21554007 -0.13548145 -0.27974284 0.10711996 0.03951947 -0.11273128 -0.16686234
-0.15762497 0.16468036 -0.11724164 -0.19866088 -0.024451284 -0.049932055 -0.1133885 -0.19527186
00000000: 45d0 7abd 89b6 5cbe a6bb 0abe 743a 8fbe
00000010: b661 db3d 2bdf 213d a8df e6bd f6dd 2abe
00000020: 7168 21be f8a1 283e 631c f0bd c26d 4bbe
00000030: 0f4e c8bc 8e85 4cbd 3b38 e8bd 59f5 47be

features.1.running_mean f4 [16]
-0.04644411 0.23644239 -0.28864622 -0.013100974 0.2560144 0.2641042 0.7853965 0.073251106
-0.028695688 0.8001484 -1.1246442 -0.23156379 -0.27862868 -0.031334218 -0.9557765 0.19776846
00000000: 2e3c 3ebd f41d 723e 70c9 93be 78a5 56bc
00000010: 5214 833e aa38 873e bf0f 493f ad04 963d
00000020: 3813 ebbc 87d6 4c3f 57f4 8fbf 0f1f 6dbe
00000030: 6ba8 8ebe 4f58 00bd c5ad 74bf d183 4a3e

features.1.running_var f4 [16]
0.14666313 0.06087585 0.07998521 0.08865193 0.10141838 0.1934521 0.20387363 0.15049893
0.1156872 0.4138127 0.64965695 0.07155018 0.11553336 0.02917856 0.43104032 0.100056216
00000000: dc2e 163e f558 793d 49cf a33d 258f b53d
00000010: 71b4 cf3d 4f18 463e 40c4 503e 641c 1a3e
00000020: 69ed ec3d 42df d33e eb4f 263f e788 923d
00000030: c19c ec3d e007 ef3c 51b1 dc3e 46ea cc3d

features.4.weight f4 [32, 16, 3, 3]
0.0005518093 0.010862482 0.037465125 0.055279274 0.028946763 -0.004595176 -0.0023072609 0.05664941
0.06671181 0.017556971 0.08877414 0.107209496 0.08802994 0.13407661 0.061443355 0.05203123
0.029676924 -0.028904472 -0.020428825 0.08697636 -0.039956927 0.012908547 -0.054707013 0.037730977
-0.009794957 -0.15642823 -0.086129725 0.020053731 0.041768327 0.05635119 -0.12080916 -0.08439704
0.0599112 -0.14645675 -0.07962654 0.007429631 -0.15633062 0.004918303 0.0119707035 -0.20672753
-0.17388806 -0.005506141 -0.1825251 -0.067233816 0.077468105 0.081902266 0.12075272 0.0574008
0.028839108 -0.065503314 -0.09313078 -0.11848198 -0.11614188 -0.07155084 0.13596442 -0.0009354205
-0.057508674 0.21308912 0.1160165 -0.07233681 0.2057816 0.024000596 -0.08660169 -0.023962589
-0.102883905 -0.08106602 -0.10675413 -0.15312989 -0.08302155 0.005553863 0.0008819228 -0.032249175
-0.019668413 -0.012812872 -0.032699276 0.031590782 0.13186966 0.011973845 0.17527832 0.13886459
-0.0010659177 0.04550428 0.08533588 -0.05166642 0.009609326 0.0037499939 -0.12256654 -0.10299474
-0.11540097 -0.0965172 0.06140714 0.021143574 -0.024807837 -0.032368943 -0.01618516 -0.021734584
-0.10802811 0.022006502 -0.07258423 0.008302448 0.061095037 0.02736726 0.060874943 0.06388865
0.02978339 0.06374909 0.1265953 0.038644813 -0.0470551 0.0082876645 0.051927026 -0.088752985
-0.02214142 0.10128731 0.015322655 0.022207545 0.15727386 -0.082880184 -0.019753441 0.046264853
-0.04058187 -0.08293377 0.07165936 -0.03690093 0.022874936 0.10285896 -0.0473562 -0.034746073
-0.028258365 -0.048274856 -0.06362049 -0.17411089 -0.024775103 -0.09285301 0.008652616 -0.037453897
0.032896668 0.028361704 0.03722324 0.12997253 0.051931795 0.14200574 0.04268081 -0.0050253174
-0.051597774 0.06019129 -0.16006704 -0.046152554 0.044402618 -0.030035734 -0.067175746 0.0370992
0.0056560794 0.071550496 -0.018283822 -0.06587845 0.032058127 0.053848345 -0.037461843 0.042372916
-0.028188324 -0.0709639 -0.02987787 -0.026084688 -0.13142784 0.054248806 -0.10968608 -0.12864523
0.0491803 -0.019052226 -0.12794931 -0.057314586 -0.10329265 -0.16776313 -0.0051460364 -0.011093047
-0.10226315 -0.080199346 -0.049359288 -0.0060093934 -0.05772345 -0.11032634 -0.07656425 -0.011884354
0.018941825 0.05051135 -0.19538361 -0.028451666 0.029146055 0.08065741 -0.019092413 -0.09372684
-0.108205564 0.010032617 -0.01104276 -0.15132034 -0.053340677 -0.1329138 0.07624326 0.15662433
0.14144559 0.13422133 0.11926869 0.10913939 -0.0024991422 0.14900997 0.1190008 -0.11033774
0.043147042 -0.0027337067 -0.13930583 0.13832015 -0.014050873 -0.07995855 -0.02182737 -0.007140871
0.10632259 -0.02210623 0.0700665 0.086884715 -0.006182002 0.09497351 0.12030672 0.06572317
0.10496881 0.13703962 -0.04330426 -0.0715449 0.21464586 0.14548604 0.098948255 0.2166656
0.070528634 0.044232674 -0.062303357 -0.0040950286 0.020617003 -0.029854257 -0.062426 -0.018866152
-0.13325424 -0.031390507 0.02333714 -0.0015093965 0.09852327 0.05265649 -0.041707356 0.07766159
0.10353525 -0.005289134 0.012627104 0.056413613 -0.049287643 -0.075792626 0.015245596 -0.14896962
00000000: 4ca7 103a 8df8 313c 0875 193d 856c 623d
00000010: c321 ed3c 2193 96bb 6a35 17bb 3609 683d
00000020: 34a0 883d a3d3 8f3c 37cf b53d a790 db3d
00000030: 0b49 b43d 614b 093e 07ac 7b3d b31e 553d
00000040: 051d f33c 12c9 ecbc 5a5a a7bc a920 b23d
00000050: e0a9 23bd 5f7e 533c 7614 60bd cc8b 1a3d
00000060: 077b 20bc b92e 20be c864 b0bd b947 a43c
00000070: 4415 2b3d 81d0 663d cb6a f7bd 5bd8 acbd
00000080: 7265 753d c2f8 15be 3d13 a3bd 4374 f33b
00000090: 2215 20be b729 a13b c520 443c 62b0 53be
000000a0: b60f 32be dc6c b4bb dce7 3abe e2b1 89bd
000000b0: 99a7 9e3d 60bc a73d 344d f73d 1a1d 6b3d
000000c0: fe3f ec3c 9a26 86bd 5abb bebd aea6 f2bd
000000d0: cbdb edbd 3f89 92bd 423a 0b3e 0237 75ba
000000e0: 378e 6bbd 0934 5a3e 0f9a ed3d 5225 94bd
000000f0: 69b8 523e e69c c43c 3a5c b1bd 314d c4bc
00000100: ccb4 d2bd f105 a6bd e9a1 dabd 15ce 1cbe
00000110: 3407 aabd 2efd b53b d630 673a b617 04bd
00000120: a71f a1bc 15ed 51bc adef 05bd 5665 013d
00000130: d708 073e f22d 443c 297c 333e 8532 0e3e
00000140: 43b6 8bba b262 3a3d 94c4 ae3d 2ba0 53bd
00000150: 6f70 1d3c 75c2 753b 2b04 fbbd e8ee d2bd
00000160: 5857 ecbd cfaa c5bd 0e86 7b3d 4a35 ad3c
00000170: ce39 cbbc 4c95 04bd be96 84bc ba0c b2bc
00000180: d73d ddbd fb46 b43c 0aa7 94bd fe06 083c
00000190: ca3e 7a3d 4e31 e03c 0158 793d 0dd8 823d
000001a0: 4cfc f33c e28e 823d 33a2 013e 064a 1e3d
000001b0: d9bc 40bd fcc8 073c 6fb1 543d 20c4 b5bd
000001c0: ec61 b5bc b96f cf3d e00b 7b3c 99ec b53c
000001d0: 660c 213e 16bd a9bd f8d1 a1bc 3780 3d3d
000001e0: 2d39 26bd 2ed9 a9bd 24c2 923d 6e25 17bd
000001f0: 3864 bb3c b8a7 d23d 93f8 41bd e651 0ebd
00000200: 167e e7bc dbbb 45bd 764b 82bd 204a 32be
00000210: 28f5 cabc b829 bebd b4c3 0d3c 4269 19bd
00000220: a8be 063d ce56 e83c 6577 183d 8517 053e
00000230: 6fb6 543d f469 113e 13d2 2e3d 6bab a4bb
00000240: 3058 53bd 248b 763d 9de8 23be 760a 3dbd
00000250: 85df 353d 800d f6bc 7093 89bd 55f5 173d
00000260: a256 b93b 1189 923d f4c7 95bc 48eb 86bd
00000270: 624f 033d 1590 5c3d 9771 19bd 398f 2d3d
00000280: 33eb e6bc 8555 91bd 6fc2 f4bc 8eaf d5bc
00000290: 0595 06be ff33 5e3d 18a3 e0bd 93bb 03be
000002a0: 4871 493d 6a13 9cbc 2505 03be b3c2 6abd
000002b0: 198b d3bd 19ca 2bbe 15a0 a8bb 9dbf 35bc
000002c0: 586f d1bd 8e3f a4bd f72c 4abd 72ea c4bb
000002d0: 6d6f 6cbd c7f2 e1bd b8cd 9cbd 98b6 42bc
000002e0: e32b 9b3c fde4 4e3d a412 48be 7813 e9bc
000002f0: b5c3 ee3c b62f a53d b167 9cbc dcf3 bfbd
00000300: e19a ddbd d85f 243c b1ec 34bc b8f3 1abe
00000310: c17b 5abd 8e1a 08be 6d25 9c3d 2162 203e
00000320: 1dd7 103e 5171 093e 2543 f43d 7984 df3d
00000330: a6c8 23bb 1296 183e b1b6 f33d c1f8 e1bd
00000340: f4ba 303d fd27 33bb 30a6 0ebe cca3 0d3e
00000350: a235 66bc 4fc1 a3bd 50cf b2bc f8fd e9bb
00000360: a8bf d93d 2018 b5bc 067f 8f3d 9df0 b13d
00000370: 6492 cabb 7981 c23d 5f63 f63d df99 863d
00000380: e3f9 d63d 1d54 0c3e cf5f 31bd 2286 92bd
00000390: 20cc 5b3e 4bfa 143e 62a5 ca3d 96dd 5d3e
000003a0: 5171 903d 522d 353d ce31 7fbd 972f 86bb
000003b0: fde4 a83c ea90 f4bc 68b2 7fbd 308d 9abc
000003c0: cd73 08be 5593 00bd 882d bf3c f1d6 c5ba
000003d0: 91c6 c93d 55ae 573d 55d5 2abd 0a0d 9f3d
000003e0: 4a0a d43d 7950 adbb eae1 4e3c f611 673d
000003f0: d7e1 49bd 2a39 9bbd aac8 793c 7e8b 18be

features.4.bias f4 [32]
0.037234336 0.021406082 -0.09910732 0.023021212 -0.08661603 0.046431106 0.08604751 -0.05374744
0.067919955 0.0050063776 -0.0792269 0.050304815 -0.035326615 0.05013448 -0.021942688 -0.032992695
0.06346271 0.014366188 0.073335774 0.024777446 0.013940837 -0.009768559 -0.042389724 -0.092423856
0.12613247 0.007960946 -0.0076714004 0.04961276 -0.026185043 -0.0333737 -0.051557887 0.05639372
00000000: 0883 183d cf5b af3c c7f8 cabd fb96 bc3c
00000010: bf63 b1bd 8b2e 3e3d ad39 b03d 4726 5cbd
00000020: 9e19 8b3d 8a0c a43b b741 a2bd 6c0c 4e3d
00000030: a4b2 10bd d059 4d3d 27c1 b3bc 5923 07bd
00000040: bdf8 813d 2960 6b3c 1131 963d 12fa ca3c
00000050: 1c68 643c 4e0c 20bc d9a0 2dbd b848 bdbd
00000060: df28 013e a16e 023c 5f60 fbbb c036 4b3d
00000070: 0482 d6bc dcb2 08bd 5d2e 53bd 1afd 663d

features.5.weight f4 [32]
0.84231144 1.077189 0.8139491 0.85292846 1.092484 1.0043797 1.1752397 1.0097432
1.0658824 0.72353697 1.0239893 0.914049 1.1706039 0.93176985 1.002235 1.0826533
1.1668142 0.8451484 0.85508496 0.9726936 0.70937455 1.1600394 0.7778318 1.0173106
0.9493638 0.7756328 0.9970214 1.0624201 0.9048389 1.0237467 0.97939444 1.2438027
00000000: b9a1 573f 54e1 893f f85e 503f 8559 5a3f
00000010: 84d6 8b3f 848f 803f 416e 963f 443f 813f
00000020: d66e 883f b839 393f 1512 833f 1eff 693f
00000030: 59d6 953f 7888 6e3f 3d49 803f 6294 8a3f
00000040: 2b5a 953f a55b 583f d9e6 5a3f 7302 793f
00000050: 9299 353f 2c7c 943f fc1f 473f 3c37 823f
00000060: 8209 733f df8f 463f cb3c 7f3f 62fd 873f
00000070: 86a3 673f 220a 833f 98b9 7a3f ed34 9f3f

features.5.bias f4 [32]
-0.36558098 -0.22705881 -0.44117403 -0.5252339 -0.44917142 -0.40813595 -0.49547377 -0.34622434
-0.15058075 -0.28681433 -0.46940118 -0.10576602 0.07596605 -0.25510204 -0.3331282 -0.44500986
-0.33204773 -0.10506114 -0.15950117 -0.46919224 -0.4943993 -0.30164352 -0.47531518 -0.20065464
-0.3303714 -0.404157 -0.31086823 -0.51145184 -0.25137243 -0.42645046 -0.3434861 -0.45769462
00000000: 6e2d bbbe 1b82 68be 90e1 e1be bb75 06bf
00000010: ccf9 e5be 32f7 d0be bdae fdbe 5144 b1be
00000020: d731 1abe 54d9 92be 5a55 f0be db9b d8bd
00000030: 1794 9b3d bc9c 82be c88f aabe 55d8 e3be
00000040: 2902 aabe 4c2a d7bd 4654 23be f739 f0be
00000050: e821 fdbe 0571 9abe 835c f3be 6978 4dbe
00000060: 7126 a9be abed cebe 1f2a 9fbe 82ee 02bf
00000070: e3b3 80be b757 dabe 69dd afbe f356 eabe

features.5.running_mean f4 [32]
-0.22363143 -0.1629054 -0.44455406 -0.91084445 -0.6395623 -0.33028096 -0.5477882 -1.6960033
0.2630157 0.6155945 -1.3231845 -0.9363089 -1.8236694 -1.5402496 -1.3510811 -1.1051424
-0.4959638 -0.73635846 -1.7241402 -0.14276476 0.51698893 -0.49537584 -0.6110687 -1.410968
-0.44520858 -0.99523515 -1.1951724 -0.36463636 -1.0030394 -0.94196266 -0.5580084 -0.6536628
00000000: a3ff 64be acd0 26be 979c e3be 1a2d 69bf
00000010: 5bba 23bf 961a a9be d93b 0cbf a316 d9bf
00000020: fea9 863e 9a97 1d3f 1c5e a9bf f1b1 6fbf
00000030: 006e e9bf e626 c5bf 3af0 acbf 4e75 8dbf
00000040: f8ee fdbe fd81 3cbf a0b0 dcbf ed30 12be
00000050: 6359 043f e7a1 fdbe 006f 1cbf 999a b4bf
00000060: 61f2 e3be bbc7 7ebf 69fb 98bf 9eb1 babe
00000070: 9863 80bf 7724 71bf a3d9 0ebf 7256 27bf

features.5.running_var f4 [32]
0.47537538 1.2117889 0.7139967 0.70154977 1.108183 1.6913779 1.8089736 1.7122433
1.6542839 1.3152866 1.3000947 1.2654976 3.423575 0.3519462 1.174414 1.613031
2.2791665 1.4463478 0.57648736 1.269553 1.1503971 0.98719054 1.4153086 1.0738479
1.5941011 0.64996564 2.8250337 1.466907 1.1155031 2.00832 1.0289416 1.3158656
00000000: 6764 f33e e61b 9b3f 7dc8 363f c498 333f
00000010: f1d8 8d3f 127f d83f 728c e73f ca2a db3f
00000020: 93bf d33f 505b a83f 8169 a63f d3fb a13f
00000030: da1b 5b40 4b32 b43e 3353 963f cd77 ce3f
00000040: dddd 1140 ed21 b93f ad94 133f b680 a23f
00000050: 3640 933f 85b8 7c3f d528 b53f d973 893f
00000060: 810b cc3f 2664 263f 5acd 3440 9cc3 bb3f
00000070: cec8 8e3f 5188 0040 5cb4 833f 496e a83f

features.8.weight f4 [64, 32, 3, 3]
-0.0065281363 0.013715592 0.0074072215 0.07951798 -0.008601914 -0.004383592 0.047074568 0.0020314825
-0.044956878 0.0684869 0.015174434 0.044478115 0.075200476 0.048046775 0.029398257 0.071558535
0.08862397 0.044473246 0.016473336 0.0021987285 -0.026962403 -0.004064192 -0.06882071 -0.0489073
-0.05342886 -0.11409191 -0.07033371 -0.046223212 -0.07671839 -0.015145228 -0.10944566 -0.0026873327
-0.05482706 -0.07211889 -0.013357983 -0.01767221 -0.017529573 -0.042458408 -0.06698026 0.074973725
0.12326826 0.03938199 -0.0076915915 0.08206919 0.09739703 -0.0013483267 -0.038974866 0.0023224412
-0.038313787 -0.010825031 -0.011220871 -0.0020080649 0.014389603 -0.05305537 -0.0043640262 -0.06326864
-0.1918473 -0.050242815 -0.070196144 -0.08994259 -0.09623019 -0.09127967 -0.06641427 -0.040679656
0.044137146 -0.0022728562 -0.014442976 -0.019679386 -0.029253732 -0.042088572 -0.08794924 -0.0015852745
0.04426465 0.009360274 -0.059521258 -0.04287374 -0.005901433 -0.10242626 -0.071315415 -0.05502993
-0.14744326 0.008493406 -0.037755355 0.011799248 0.034719776 -0.03235315 -0.020611558 -0.036173396
0.015938533 -0.019955939 0.014761496 0.030886227 -0.030773332 0.08935943 0.0056738094 -0.0055156853
0.034716807 0.0009397383 0.03188141 0.12271932 -0.040251546 -0.034940556 0.05955239 -0.041593537
-0.12609242 0.023646304 -0.046995603 -0.04960303 0.10599181 0.070577875 -0.0092659835 0.074436225
-0.048130587 0.00054747163 0.013491351 -0.15154202 -0.08261626 -0.050627757 -0.033224337 0.022742227
-0.099743575 -0.047136046 0.020237742 -0.10220566 -0.076515555 -0.075777926 -0.047695596 -0.01200269
-0.13164046 0.03640271 0.09998697 0.0642997 -0.041655537 -0.057098564 0.051331006 -0.009878082
0.03247376 -0.0065144715 0.04154599 -0.093209304 -0.11266365 -0.0025934286 -0.025027687 -0.06564969
0.07865284 0.008567846 -0.022706458 0.14878649 0.1396861 0.043956976 0.16365916 0.14556861
0.023672724 0.021511551 -0.07833352 -0.12853774 -0.07096013 -0.04128324 -0.1283544 -0.03728296
-0.08354456 -0.053122573 -0.0077921846 0.04016103 0.048898444 0.054858252 0.11289097 0.035374142
0.018394275 0.023240363 0.07846115 -0.06877537 -0.11424931 -0.108141355 -0.079889186 -0.00390117
-0.104314886 -0.027694354 -0.040492482 -0.101661354 -0.004095956 0.051462293 0.06647208 0.10211737
0.03639429 0.034161087 0.06317997 -0.059253667 -0.043659493 -0.06911544 -0.014667335 -0.07510208
-0.12412443 0.008523708 -0.045929976 -0.05952722 -0.113685414 -0.109904885 -0.011317919 0.04994314
0.08663647 0.0011370558 0.050843034 0.08832369 0.016062632 -0.057651095 0.09310365 -0.05368397
0.06406169 0.012750561 -0.034274887 0.09245953 -0.041806653 -0.0075164656 -0.008602692 -0.04331543
-0.024634324 0.022957353 -0.08380565 0.03225421 0.104082 -0.13351783 -0.06877826 -0.03412972
-0.07814546 -0.015396216 -0.07305803 0.028346196 -0.025730612 -0.021834875 0.022736065 0.035372473
-0.006731332 -0.037269685 0.16066982 0.1443553 0.0976405 0.077641 0.098290436 -0.00045197774
0.114848055 0.15418112 0.09143276 -0.07257251 -0.027639987 -0.10237024 0.04509018 0.040736396
-0.023608092 0.08951713 0.048003353 -0.017186785 0.031200899 0.011426824 -0.05895054 0.028426
00000000: fae9 d5bb 5db7 603c 47b8 f23b 53da a23d
00000010: 0bef 0cbc 3ca4 8fbb 43d1 403d 9f22 053b
00000020: b424 38bd dc42 8c3d 309e 783c af2e 363d
00000030: b502 9a3d b2cc 443d 9dd4 f03c 488d 923d
00000040: 7c80 b53d 9429 363d 17f3 863c 8b18 103b
00000050: 42e0 dcbc ea2c 85bb dff1 8cbd 0553 48bd
00000060: 38d8 5abd 05a9 e9bd 1f0b 90bd 8d54 3dbd
00000070: 881e 9dbd b123 78bc 0c25 e0bd f61d 30bb
00000080: 5792 60bd 12b3 93bd 71db 5abc 4fc5 90bc
00000090: 2e9a 8fbc dee8 2dbd f22c 89bd d38b 993d
000000a0: 1274 fc3d 024f 213d bf09 fcbb e413 a83d
000000b0: 1878 c73d 56ba b0ba 1ca4 1fbd 1934 183b
000000c0: ebee 1cbd 795b 31bc bed7 37bc bd99 03bb
000000d0: 5fc2 6b3c 9650 59bd 1b00 8fbb fd92 81bd
000000e0: 9e73 44be 69cb 4dbd ffc2 8fbd d233 b8bd
000000f0: 5514 c5bd d6f0 babd 3404 88bd b69f 26bd
00000100: 27c9 343d 33f4 14bb 3ba2 6cbc aa36 a1bc
00000110: 86a5 efbc 1165 2cbd bb1e b4bd fcc8 cfba
00000120: da4e 353d d65b 193c 90cc 73bd 609c 2fbd
00000130: cf60 c1bb dcc4 d1bd d10d 92bd 1067 61bd
00000140: 5efb 16be ed27 0b3c 5ca5 1abd a251 413c
00000150: 5336 0e3d bd84 04bd 92d9 a8bc 8e2a 14bd
00000160: 8791 823c a37a a3bc 34da 713c 1d05 fd3c
00000170: 5b18 fcbc 1402 b73d 5deb b93b ecbc b4bb
00000180: 3633 0e3d c558 763a 1596 023d 4454 fb3d
00000190: cede 24bd d41d 0fbd 35ed 733d fc5d 2abd
000001a0: 5f1e 01be e5b5 c13c 767e 40bd 8c2c 4bbd
000001b0: 3c12 d93d 228b 903d 5ad0 17bc 0572 983d
000001c0: 9424 45bd 3384 0f3a d40a 5d3c d52d 1bbe
000001d0: b732 a9bd 0d5f 4fbd 3e16 08bd e84d ba3c
000001e0: 5c46 ccbd ba11 41bd 9fc9 a53c 3351 d1bd
000001f0: 30b4 9cbd 7531 9bbd 755c 43bd eea6 44bc
00000200: c2cc 06be 021b 153d f8c5 cc3d 90af 833d
00000210: ff9e 2abd 2fe0 69bd 7640 523d aed7 21bc
00000220: 3503 053d 5977 d5bb 212c 2a3d 85e4 bebd
00000230: 33bc e6bd 83f6 29bb dd06 cdbc 5873 86bd
00000240: bd14 a13d 2760 0c3c e502 babc 7c5b 183e
00000250: df09 0f3e 3b0c 343d 4496 273e f00f 153e
00000260: 4ded c13c fe38 b03c 536d a0bd 669f 03be
00000270: 8b53 91bd 9d18 29bd 566f 03be 04b6 18bd
00000280: 6919 abbd 0e97 59bd 9555 ffbb e47f 243d
00000290: bc49 483d 0cb3 603d 6233 e73d 7ae4 103d
000002a0: 97af 963c 9362 be3c 3db0 a03d 1ada 8cbd
000002b0: 8bfb e9bd 3779 ddbd f19c a3bd c6aa 7fbb
000002c0: 0ba3 d5bd 45df e2bc 72db 25bd d433 d0bd
000002d0: 5f37 86bb 20ca 523d 8422 883d e922 d13d
000002e0: 2e12 153d 7fec 0b3d 8064 813d f9b3 72bd
000002f0: 4cd4 32bd 658c 8dbd 434f 70bc 1fcf 99bd
00000300: f334 febd 06a7 0b3c 1221 3cbd d0d2 73bd
00000310: e6d3 e8bd d015 e1bd cb6e 39bc 2e91 4c3d
00000320: 766e b13d 4309 953a c940 503d 0de3 b43d
00000330: c895 833c 8e23 6cbd 20ad be3d b9e3 5bbd
00000340: c632 833d bbe7 503c d363 0cbd 6c5b bd3d
00000350: 743d 2bbd af4c f6bb 4ef2 0cbc 856b 31bd
00000360: eccd c9bc 0f11 bc3c 4ca2 abbd fe1c 043d
00000370: f228 d53d e6b8 08be 9edb 8cbd 9bcb 0bbd
00000380: ba0a a0bd 6940 7cbc 739f 95bd 4836 e83c
00000390: 01c9 d2bc 0ddf b2bc fc40 ba3c bae2 103d
000003a0: 8192 dcbb 19a8 18bd a186 243e e0d1 133e
000003b0: bef7 c73d 3f02 9f3d 7f4c c93d 6df7 ecb9
000003c0: 7535 eb3d a8e1 1d3e 1941 bb3d e5a0 94bd
000003d0: 416d e2bc 7da7 d1bd 7bb0 383d 35db 263d
000003e0: c265 c1bc c254 b73d 2a9f 443d 4dcb 8cbc
000003f0: 0799 ff3c 9337 3b3c 1f76 71bd a5dd e83c

features.8.bias f4 [64]
-0.01688682 -0.0644349 0.0010615799 -0.024258694 0.019145126 -0.009597037 0.044703033 0.021273557
0.0011488147 -0.0069149155 -0.06329234 0.06750026 0.053375725 0.055066913 0.0089203175 0.05542838
0.10982901 0.063085295 0.05342168 -0.03601354 -0.0019085654 -0.012578748 -0.032019302 0.027715186
0.018464312 0.035003364 -0.06874727 -0.10583612 0.04758809 0.07098535 0.037325267 0.013863581
0.024484504 0.0069980775 0.04672022 -0.006353321 -0.07262091 -0.06393152 -0.025200812 0.042428657
0.042588238 -0.00041703825 -0.043324564 0.01418743 0.021268567 0.058642402 0.035415035 -0.024781154
0.08846375 -0.015920667 -0.044753067 -0.047701687 -0.02698169 0.06776079 -0.045810856 -0.03351853
0.03723321 0.021658959 -0.0075616026 0.024622545 -0.012799374 0.054626226 -0.042802617 0.04360818
00000000: 3a56 8abc 72f6 83bd b624 8b3a 2bba c6bc
00000010: 3dd6 9c3c e43c 1dbc 871a 373d e245 ae3c
00000020: d393 963a 8496 e2bb 6a9f 81bd 943d 8a3d
00000030: 81a0 5a3d d88d 613d 8626 123c de08 633d
00000040: 08ee e03d dd32 813d b1d0 5a3d ef82 13bd
00000050: d428 faba 1817 4ebc ac26 03bd f50a e33c
00000060: 7842 973c b05f 0f3d 5ecb 8cbd 9cc0 d8bd
00000070: bbeb 423d c460 913d 61e2 183d 1324 633c
00000080: ba93 c83c 2150 e53b b45d 3f3d 852f d0bb
00000090: 46ba 94bd 87ee 82bd ef71 cebc acc9 2d3d
000000a0: 0171 2e3d eda5 dab9 1975 31bd 6572 683c
000000b0: 6b3b ae3c 0433 703d 5b0f 113d d901 cbbc
000000c0: 7c2c b53d 0f6c 82bc fe4e 37bd d862 43bd
000000d0: b508 ddbc 2bc6 8a3d 2aa4 3bbd ba4a 09bd
000000e0: da81 183d 216e b13c 52c7 f7bb 38b5 c93c
000000f0: 77b4 51bc c0bf 5f3d cc51 2fbd 7e9e 323d

features.9.weight f4 [64]
1.2049024 1.1936768 1.1881686 1.1762674 1.2051396 1.1721895 1.1860199 1.2053323
1.1745528 1.1282278 1.1587794 1.174845 1.1670327 1.203437 1.2549752 1.253601
1.1138763 1.1686678 1.1484008 1.1310412 1.1849799 1.215029 1.1527476 1.1757382
1.2354525 1.1650048 1.189631 1.3208326 1.1812212 1.1778475 1.1976149 1.1411791
1.222035 1.2031419 1.1827178 1.2098002 1.249852 1.1527004 1.1808436 1.2540547
1.2081282 1.2190242 1.2623614 1.1180393 1.226406 1.1529183 1.2095641 1.2785776
1.3044384 1.2208084 1.2523057 1.1498244 1.2765887 1.1605972 1.1980144 1.2046264
1.1134639 1.2478945 1.2565432 1.1848873 1.2176545 1.2845118 1.1934168 1.1771891
00000000: 3e3a 9a3f 67ca 983f e915 983f ee8f 963f
00000010: 0442 9a3f 4e0a 963f 80cf 973f 5448 9a3f
00000020: bf57 963f c569 903f e252 943f 5261 963f
00000030: 5461 953f 390a 9a3f 07a3 a03f ff75 a03f
00000040: 8093 8e3f e896 953f ccfe 923f f5c5 903f
00000050: 6cad 973f 1286 9b3f 3c8d 933f 977e 963f
00000060: 4f23 9e3f e11e 953f d445 983f 0b11 a93f
00000070: 4232 973f b5c3 963f 724b 993f 2812 923f
00000080: a56b 9c3f 8e00 9a3f 4c63 973f bcda 9a3f
00000090: 26fb 9f3f b08b 933f e225 973f dd84 a03f
000000a0: f2a3 9a3f fc08 9c3f 0f95 a13f e91b 8f3f
000000b0: dffa 9c3f d492 933f ffd2 9a3f 6ea8 a33f
000000c0: d6f7 a63f 7343 9c3f 8e4b a03f 722d 933f
000000d0: 4267 a33f 738e 943f 8958 993f 3331 9a3f
000000e0: fc85 8e3f 02bb 9f3f 68d6 a03f 63aa 973f
000000f0: 1adc 9b3f e26a a43f e2c1 983f 22ae 963f

features.9.bias f4 [64]
-0.2635944 -0.21187261 -0.2202743 -0.23907115 -0.360751 -0.20148824 -0.23541382 -0.2085449
-0.25592425 -0.24925902 -0.27369404 -0.16638702 -0.20826066 -0.32561332 -0.24896578 -0.411898
-0.33089432 -0.23786853 -0.25710723 -0.23847756 -0.25681254 -0.30594274 -0.22550826 -0.16610374
-0.20290852 -0.16229859 -0.30283797 -0.28425613 -0.2233718 -0.29336038 -0.25489694 -0.28716317
-0.32739392 -0.22166641 -0.28331205 -0.26183584 -0.33603716 -0.21916403 -0.29473156 -0.29510364
-0.275469 -0.37841183 -0.24982588 -0.21247639 -0.23551187 -0.24957207 -0.24346554 -0.25825372
-0.26259443 -0.19808619 -0.327942 -0.18640897 -0.26132667 -0.28762743 -0.23827581 -0.2407791
-0.2043634 -0.21134825 -0.3557036 -0.33198288 -0.2802534 -0.20985939 -0.29525998 -0.23604289
00000000: d8f5 86be 22f5 58be 968f 61be 11cf 74be
00000010: 5bb4 b8be ef52 4ebe 5210 71be cb8c 55be
00000020: 8108 83be c23d 7fbe a021 8cbe 5c61 2abe
00000030: 4842 55be cab6 a6be e3f0 7ebe 4be4 d2be
00000040: fb6a a9be cf93 73be 8fa3 83be 7633 74be
00000050: ef7c 83be 87a4 9cbe a3eb 66be 1917 2abe
00000060: 40c7 4fbe 9a31 26be 940d 9bbe 058a 91be
00000070: 94bb 64be 5533 96be da81 82be 0d07 93be
00000080: 2da0 a7be 85fc 62be 470e 91be 590f 86be
00000090: 100d acbe 896c 60be 0ee7 96be d317 97be
000000a0: 460a 8dbe 32bf c1be 5bd2 7fbe 6993 59be
000000b0: 062a 71be d28f 7fbe 084f 79be d539 84be
000000c0: c772 86be 1bd7 4abe 04e8 a7be fee1 3ebe
000000d0: 9ccc 85be e743 93be 93fe 73be cc8e 76be
000000e0: a444 51be ad6b 58be c81e b6be a9f9 a9be
000000f0: 607d 8fbe 61e5 56be 512c 97be 3ab5 71be

features.9.running_mean f4 [64]
-0.80844873 -0.7547271 -0.4270767 0.10147421 -0.4994504 -1.1639625 -0.74514294 -0.6971787
-0.5062746 -0.85687 -0.7339369 -0.7351304 0.1295323 -0.7053039 0.13894475 -1.26598
-0.75040007 -0.33261725 0.30655545 -1.3127486 -0.8029507 -0.95140785 -0.9771609 -1.0035429
0.05145732 -0.36701745 -0.44565377 -0.60479385 0.1201026 -0.36064833 -0.27335635 -1.4132642
-0.9253051 -0.74050975 -0.23321925 -0.66483414 -0.36429837 -0.6529789 -0.73670775 -0.6804277
-1.0768772 -0.5676038 -0.09741571 -0.16359466 -0.3679933 -0.9421859 -0.6346326 0.6689159
-0.52846545 -0.65998006 -0.4813853 -0.61111474 -0.77040553 -0.50569737 -1.1137884 -0.3959875
-0.7224968 -0.44057122 -1.0375887 -0.37044114 -0.7263064 0.32281893 -0.79970753 -0.3271107
00000000: 7ff6 4ebf cc35 41bf cca9 dabe b6d1 cf3d
00000010: f6b7 ffbe b9fc 94bf b0c1 3ebf 4e7a 32bf
00000020: 369b 01bf d55b 5bbf 4ae3 3bbf 8231 3cbf
00000030: 1ea4 043e cc8e 34bf 8847 0e3e a20b a2bf
00000040: 381a 40bf cf4c aabe d6f4 9c3e 2508 a8bf
00000050: 2d8e 4dbf 778f 73bf 3727 7abf 1874 80bf
00000060: e9c4 523d b6e9 bbbe bb2c e4be c5d3 1abf
00000070: 5af8 f53d e6a6 b8be 5df5 8bbe d7e5 b4bf
00000080: cce0 6cbf 0c92 3dbf 07d1 6ebe 9232 2abf
00000090: 5185 babe a029 27bf e198 3cbf 8230 2ebf
000000a0: 1dd7 89bf 7c4e 11bf e381 c7bd 5c85 27be
000000b0: 9e69 bcbe 1833 71bf 4877 22bf 133e 2b3f
000000c0: 8349 07bf 74f4 28bf 2278 f6be 0472 1cbf
000000d0: 4c39 45bf 6275 01bf 9e90 8ebf e0be cabe
000000e0: 8df5 38bf 8d92 e1be b5cf 84bf 76aa bdbe
000000f0: 37ef 39bf 8648 a53e a2b9 4cbf 0e7b a7be

features.9.running_var f4 [64]
1.0563115 1.037325 0.7543439 0.6381298 0.4978526 1.2210065 0.67399454 0.98290366
0.8757557 1.4301932 0.6032528 1.3032469 0.629475 0.8297 0.63623154 0.7671785
0.46462685 0.58458865 0.6781347 0.8771884 0.56715846 0.74964595 0.68183523 0.61045116
0.97106034 0.9649215 0.6718345 0.81558186 0.7975821 0.8191909 0.7236563 0.7139949
0.8103946 0.6632303 1.2746519 0.5721161 0.56778765 0.60799253 1.009903 0.5840723
0.836883 0.61303306 0.45939916 0.91307455 0.7320474 0.67470974 0.6176835 0.5577028
0.881577 0.7980904 0.61061126 0.7207901 0.70599127 0.6870832 1.2222914 0.5954406
0.7265296 0.9889268 0.55279505 0.90253234 0.5985071 0.51522017 0.6326847 0.61205685
00000000: 3735 873f 11c7 843f af1c 413f 795c 233f
00000010: 89e6 fe3e f149 9c3f e88a 2c3f 939f 7b3f
00000020: 8731 603f 9210 b73f c76e 1a3f cbd0 a63f
00000030: 4625 213f 3867 543f 12e0 223f cf65 443f
00000040: 92e3 ed3e 9aa7 153f 3c9a 2d3f 6b8f 603f
00000050: 4c31 113f cce8 3f3f c18c 2e3f 8746 1c3f
00000060: 6997 783f 1805 773f 59fd 2b3f f9c9 503f
00000070: 572e 4c3f 7fb6 513f 8a41 393f 5fc8 363f
00000080: 0576 4f3f 76c9 293f cb27 a33f 3376 123f
00000090: 885a 113f 66a5 1b3f 8044 813f c385 153f
000000a0: f73d 563f bcef 1c3f 5e36 eb3e 41bf 693f
000000b0: 7567 3b3f c7b9 2c3f 8120 1e3f 9cc5 0e3f
000000c0: 08af 613f a74f 4c3f 0551 1c3f b385 383f
000000d0: d8bb 343f afe4 2f3f 0b74 9c3f cc6e 183f
000000e0: d8fd 393f 4f2a 7d3f fa83 0d3f 5c0c 673f
000000f0: c337 193f 78e5 033f a0f7 213f c2af 1c3f

classifier.2.weight f4 [10, 576]
-0.07460423 0.03992746 0.056212347 0.13032335 0.14729816 0.037673555 0.037185494 0.07023816
-0.10992469 0.03898729 0.011918406 0.049845565 -0.16939214 0.008107677 0.05216969 -0.08376623
-0.042114805 -0.0964124 -0.059901975 -0.008571337 0.026342245 0.09836862 0.027903328 0.044671673
0.049235098 0.057693757 0.03666245 -0.006934064 0.016335323 -0.064343534 0.021942973 -0.057203535
-0.0010335745 -0.08767455 -0.058134608 0.026384633 -0.08433616 0.047587875 0.016456416 0.018962333
-0.005592225 0.02589064 0.017330317 -0.109866835 -0.1077595 0.03019727 0.025559528 -0.03560797
0.08708664 0.031692084 -0.067013636 0.15633398 0.14810725 0.0842459 0.023596145 0.012061605
0.10324852 0.039940078 0.09272364 0.09777456 0.04932319 -0.106782265 -0.07460062 0.09125553
0.057044007 -0.087806605 0.0069623706 0.1494238 0.1562877 -5.30186e-05 0.11350546 0.07563879
0.009893647 -0.040753104 -0.14179328 -0.021879693 0.017357523 0.008029379 0.014189627 0.040722977
0.080564655 0.09348514 -0.07204067 -0.13769454 0.11617062 -0.05157089 -0.057060927 0.083238855
-0.023261148 -0.036524694 -0.027880812 -0.019910604 0.013465182 -0.015678821 -0.0066937143 0.09070876
-0.15086244 -0.15562503 0.031445052 -0.06715391 0.12675518 0.11736596 0.034662087 0.084613405
0.069673814 0.06292424 0.06267836 -0.021520838 -0.067359194 -0.01441998 0.018419875 -0.09812834
-0.007057897 0.041491844 -0.23717129 -0.055612404 -0.14847548 -0.18886086 0.13382536 0.23069572
0.023213755 0.112040795 0.11089846 0.05957752 -0.013273868 -0.06687093 -0.094973125 -0.10550418
-0.0159148 -0.019932343 -0.056443762 0.011883536 -0.02697499 -0.17174856 -0.02385788 -0.017702717
-0.014011231 0.03843717 0.019882137 -0.0057254424 -0.15228164 0.019399632 -0.013942887 -0.12230502
-0.05400876 -0.00035191336 -0.07401257 0.12599528 0.09489992 0.015436664 -0.0011133802 -0.03797577
-0.09824883 0.015017457 -0.046004426 -0.04576406 -0.02234045 -0.08439685 -0.109077126 -0.034403358
0.022591963 -0.10338808 -0.043560196 -0.13793115 0.05746494 -0.029460236 -0.1440254 0.03724256
-0.15928712 -0.21310242 -0.017483424 -0.007430402 -0.010462955 -0.011688672 0.05195723 0.07789542
0.07057419 0.14576432 0.14226747 -0.04942536 0.07928025 0.05852832 0.009936524 0.0871081
0.054995432 -0.012068459 0.047130816 0.04497246 -0.15631466 -0.07431427 -0.024029745 -0.010252397
-0.07710781 -0.07664203 -0.08853437 0.021016391 -0.10940625 -0.18395136 -0.037612908 -0.06820945
-0.019613136 0.022060676 0.017441612 0.037935954 0.00033915712 0.019068174 0.09514014 -0.03600383
0.00514657 0.023607127 0.03874048 0.025665363 0.09169369 0.016639221 0.07568124 0.105984055
-0.040599648 0.04791563 0.055829734 -0.14428931 -0.008782371 0.0970841 0.030211736 0.047873307
0.060850535 -0.04974675 -0.01033565 -0.016665682 -0.12015036 -0.031024376 0.0011901438 0.018795151
0.037004296 0.033781487 -0.11895898 -0.06359769 0.097154 -0.009623377 0.053089578 0.066980585
0.027936596 -0.028907735 -0.26731092 -0.084519885 0.061275516 0.07237249 -0.11590008 -0.008563573
0.010712823 -0.04471613 -0.010127036 -0.14249638 0.06391606 0.05929881 0.07137633 0.050631545
00000000: 1aca 98bd fa8a 233d eb3e 663d 7c73 053e
00000010: 54d5 163e 964f 1a3d d14f 183d 06d9 8f3d
00000020: 3220 e1bd 23b1 1f3d 6b45 433c dd2a 4c3d
00000030: 2275 2dbe 10d6 043c e3af 553d a18d abbd
00000040: 9380 2cbd dd73 c5bd c65b 75bd cb6e 0cbc
00000050: b1cb d73c 7d75 c93d 8595 e43c a5f9 363d
00000060: beaa 493d 4a50 6c3d 5d2b 163d 2537 e3bb
00000070: a8d1 853c 8bc6 83bd c0c1 b33c 414e 6abd
00000080: 0179 87ba b78e b3bd 8e1e 6ebd 9624 d83c
00000090: 70b8 acbd 81eb 423d 9bcf 863c e556 9b3c
000000a0: fc3e b7bb 9c18 d43c 4ff8 8d3c dd01 e1bd
000000b0: 03b1 dcbd 4460 f73c 3762 d13c aad9 11bd
000000c0: 7b5a b23d 8fcf 013d 723e 89bd 0416 203e
000000d0: 6da9 173e 1d89 ac3d b44c c13c 0a9e 453c
000000e0: f673 d33d 3598 233d e4e5 bd3d 073e c83d
000000f0: 1d07 4a3d a9b0 dabd 36c8 98bd 2ee4 ba3d
00000100: faa6 693d f3d3 b3bd 9924 e43b 8d02 193e
00000110: e209 203e 4a60 5eb8 8d75 e83d 83e8 9a3d
00000120: f718 223c baec 26bd 4232 11be 0b3d b3bc
00000130: 5d31 8e3c a88d 033c 9c7b 683c 23cd 263d
00000140: 15ff a43d 2375 bf3d 0f8a 93bd ccff 0cbe
00000150: ddea ed3d ff3b 53bd b8b8 69bd 2279 aa3d
00000160: 2a8e bebc eb9a 15bd 4d66 e4bc 901b a3bc
00000170: 119d 5c3c df70 80bc f256 dbbb 84c5 b93d
00000180: af7b 1abe 2b5c 1fbe 87cc 003d fd87 89bd
00000190: 1ccc 013e 905d f03d d5f9 0d3d cb49 ad3d
000001a0: 25b1 8e3d 6dde 803d 835d 803d 784c b0bc
000001b0: 9ef3 89bd c841 6cbc 47e5 963c 83f7 c8bd
000001c0: ee45 e7bb 5af3 293d 08dd 72be d5c9 63bd
000001d0: f509 18be be64 41be 8409 093e 803b 6c3e
000001e0: c62a be3c a575 e53d bb1e e33d 8f07 743d
000001f0: a37a 59bc a0f3 88bd 4581 c2bd 9312 d8bd
00000200: c15f 82bc 2749 a3bc 9331 67bd 2ab3 423c
00000210: a7fa dcbc dbde 2fbe 9a71 c3bc 4a05 91bc
00000220: 5d8f 65bc 4b70 1d3d dddf a23c 7e9c bbbb
00000230: b8ef 1bbe faeb 9e3c b570 64bc 0e7b fabd
00000240: 4a38 5dbd 0381 b8b9 e793 97bd e804 013e
00000250: e45a c23d 10ea 7c3c d7ee 91ba 7b8c 1bbd
00000260: af36 c9bd c80b 763c 236f 3cbd 1873 3bbd
00000270: 5203 b7bc 41d8 acbd d463 dfbd 89ea 0cbd
00000280: c812 b93c 21bd d3bd 2d6c 32bd d33d 0dbe
00000290: 5b60 6b3d 9856 f1bc 657b 13be a88b 183d
000002a0: 2a1c 23be 8537 5abe 6639 8fbc bb7a f3bb
000002b0: d06c 2bbc d881 3fbc 1bd1 543d a287 9f3d
000002c0: 3389 903d 3e43 153e 90ae 113e 3f72 4abd
000002d0: af5d a23d 64bb 6f3d cdcc 223c bb65 b23d
000002e0: e442 613d c9ba 45bc 3e0c 413d 0b35 383d
000002f0: f310 20be 1432 98bd 07da c4bc abf9 27bc
00000300: b3ea 9dbd 7ff6 9cbd 8251 b5bd 912a ac3c
00000310: 6210 e0bd bf5d 3cbe fe0f 1abd 65b1 8bbd
00000320: baab a0bc 97b8 b43c b6e1 8e3c bb62 1b3d
00000330: e6d0 b139 dc34 9c3c d5d8 c23d c178 13bd
00000340: 8fa4 a83b bc63 c13c 56ae 1e3d 2b40 d23c
00000350: e7c9 bb3d fa4e 883c c4fe 9a3d 2b0e d93d
00000360: d14b 26bd 2e43 443d b8ad 643d 94c0 13be
00000370: efe3 0fbc 07d4 c63d 9a7e f73c cd16 443d
00000380: 693e 793d 40c3 4bbd dc56 29bc 7886 88bc
00000390: 6411 f6bd d526 febc 99fe 9b3a 4af8 993c
000003a0: d191 173d 755e 0a3d c4a0 f3bd 813f 82bd
000003b0: adf8 c63d 5eab 1dbc 7574 593d 1e2d 893d
000003c0: 4adb e43c eacf ecbc fadc 88be c318 adbd
000003d0: 09fc 7a3d 0738 943d 055d edbd 3a4e 0cbc
000003e0: d684 2f3c 4328 37bd deeb 25bc 92ea 11be
000003f0: 6ce6 823d 4fe3 723d c12d 923d 0663 4f3d

classifier.2.bias f4 [10]
0.028154694 0.10069705 -0.033943728 0.06091065 -0.035136133 -0.04913521 -0.030423956 -0.01652663
-0.012090852 0.046794698
00000000: aca4 e63c 413a ce3d 9408 0bbd 727d 793d
00000010: e8ea 0fbd 0142 49bd a93b f9bc db62 87bc
00000020: b518 46bc ccab 3f3d
