model/digit_cnn.onnx (onnx, 135501 bytes, 8 tensors)

features.0.weight f4 [16, 1, 3, 3]
0	0x3f9a146c	1.2037482
1	0x3f0ba505	0.54548675
2	0x3f16fd8b	0.58980626
3	0xbf70c833	-0.9405548
4	0x3d7dc9c7	0.061960008
5	0xbebafde9	-0.36521843
6	0x3e5fe536	0.21864781
7	0xbf609676	-0.87729585
8	0xbedfc1fc	-0.43702686
9	0x3e686b61	0.22697212
10	0x3eaeae14	0.34117186
11	0x3e8f7f35	0.2802674
12	0xbf27c07b	-0.65528077
13	0x3dce3a1c	0.10069677
14	0x3f058c41	0.52167135
15	0xbf00e16b	-0.5034396
16	0x3eeb2bb5	0.45931783
17	0x3f03f9fb	0.51553315
18	0x3f6f3aad	0.9344891
19	0xbf61c994	-0.8819821
20	0x3ecc8be9	0.39950493
21	0x3f054e8c	0.5207298
22	0x3e10289b	0.1407799
23	0xbf98e97d	-1.1946255
24	0xbd80314a	-0.06259401
25	0x3f5b8aa3	0.8575842
26	0xbf6df883	-0.92957324
27	0xbf08abd8	-0.5338721
28	0xbf318e68	-0.6935792
29	0x3d3d3f5a	0.046202995
30	0xbf1399db	-0.5765664
31	0xbdf3a72d	-0.118971206
32	0xbf31278c	-0.6920097
33	0x3de93739	0.11387486
34	0x3edc3d7c	0.4301566
35	0x3e521006	0.20513925
36	0x3f7732d4	0.9656193
37	0xbe5a72e2	-0.21332887
38	0xbec5d8ac	-0.3864187
39	0x3f3d02c7	0.7383236
40	0xbf86fd8a	-1.0546124
41	0xbf7ccd47	-0.9875073
42	0x3e7bb750	0.24581647
43	0x3f1ff4c8	0.6248288
44	0x3df2a1fb	0.118473016
45	0xbf88972c	-1.0671134
46	0x3e85441a	0.2602852
47	0x3f8258d6	1.018336
48	0x3f710789	0.9415212
49	0xbf4740ec	-0.7783344
50	0x3f6c2820	0.92248726
51	0xbea271f5	-0.31727567
52	0xbfb4969f	-1.4108466
53	0xbe3f5584	-0.18684965
54	0x3d13e61a	0.036108114
55	0xbf40356b	-0.7508151
56	0x3ec02162	0.3752547
57	0xbf90df06	-1.1318061
58	0xbe98d6eb	-0.2985147
59	0x3f5f5d7e	0.8725203
60	0xbe531a97	-0.20615612
61	0x3f737d60	0.9511318
62	0x3e42d0f7	0.19025026
63	0x3d96d28f	0.073643796
64	0x3f15fc2c	0.5858791
65	0x3df338a5	0.118760385
66	0x3bd40ddf	0.00647138
67	0x3ee03e4b	0.43797526
68	0x3e2d4b20	0.16923189
69	0xbda10760	-0.07862735
70	0x3dfe643e	0.124214634
71	0x3e3af64c	0.18258017
72	0x3ee6376a	0.44964153
73	0xbf197c46	-0.5995525
74	0x3e67150d	0.22566624
75	0x3e356735	0.17715152
76	0x3f07800d	0.52929765
77	0x3f0eb12e	0.55739105
78	0xbead98be	-0.33905596
79	0x3f220fbc	0.6330526
80	0x3cec293f	0.028828261
81	0x3d045cd2	0.032315083
82	0x3e910d1d	0.28330317
83	0xbe52a91d	-0.20572324
84	0x3e50318e	0.20331404
85	0x3e76cfde	0.24102733
86	0x3ea500f3	0.32227287
87	0x3ea6b0af	0.32556674
88	0x3e66bcfd	0.22533031
89	0x3ebaf930	0.3651824
90	0xbf893049	-1.071786
91	0x3ede2973	0.43390998
92	0xbf831471	-1.0240613
93	0xbf0bc7c2	-0.5460168
94	0x3f8d2464	1.102673
95	0x3f305cd8	0.6889167
96	0x3f9d74c8	1.2301264
97	0xbe011857	-0.12606941
98	0xbece9d83	-0.40354547
99	0x3f75bd8a	0.9599234
100	0xbf1ec5e8	-0.6202073
101	0xbfc480c8	-1.5351801
102	0x3f0f8725	0.5606559
103	0x3e637202	0.2221146
104	0x3f101823	0.5628683
105	0x3e2099c5	0.15683658
106	0xbe26c7b3	-0.16287117
107	0x3f394d57	0.72383636
108	0x3ec8a00f	0.39184615
109	0xbe06dd53	-0.13170366
110	0x3e1e9209	0.15485395
111	0x3c4f8807	0.012666709
112	0x3f8b90e7	1.0903596
113	0x3f84e2e9	1.0381747
114	0xbf9a2138	-1.2041388
115	0xbf77438f	-0.9658746
116	0xbe75bf57	-0.23998772
117	0xbf0972bc	-0.53690696
118	0xbeba0ffd	-0.36340323
119	0x3f77fce7	0.96870273
120	0xbf2de03a	-0.6792027
121	0xbd75f2d7	-0.060046043
122	0x3e99caab	0.30037436
123	0xbf5a3541	-0.8523751
124	0x3ed920ef	0.4240794
125	0xbe593da8	-0.21214926
126	0x3f9700fb	1.1797174
127	0xbf819392	-1.012316
128	0xbf3a94ff	-0.728836
129	0xbf8c6d2d	-1.0970818
130	0x3e2d9084	0.1694966
131	0xbdb42ae0	-0.0879724
132	0xbf2bb385	-0.670708
133	0xbe2c3fac	-0.16821164
134	0x3f765149	0.9621778
135	0xbf956ba0	-1.167347
136	0xbef25314	-0.4732901
137	0x3d0f4d8b	0.03498606
138	0x3db63e53	0.08898606
139	0xbdeb77e1	-0.114974745
140	0xbd96a17f	-0.07355022
141	0x3f90394e	1.1267488
142	0x3f209e76	0.6274179
143	0xbce92558	-0.02846019

features.0.bias f4 [16]
0	0xbd5db25b	-0.05412517
1	0x3f425ce0	0.75922966
2	0xbe54eec0	-0.20794201
3	0xbf9b9b2b	-1.2156729
4	0xbe257c0f	-0.16160606
5	0xbef92c79	-0.48666742
6	0xbca9c7fc	-0.020725243
7	0x3f8919cc	1.0710998
8	0x3f87bfd5	1.0605417
9	0x3f9fb3bb	1.2476724
10	0x3e33b7fa	0.1755065
11	0x3eda273c	0.42608058
12	0x3d835062	0.06411816
13	0xbf31083f	-0.6915321
14	0xbf8a55cd	-1.0807434
15	0xbd0ebd3f	-0.034848448

features.4.bias f4 [32]
0	0xbdd097f5	-0.101852335
1	0x3e88aca9	0.2669423
2	0xbdcb027c	-0.09912583
3	0x3edeee85	0.4354135
4	0x3dae44c0	0.08509207
5	0x3f0850e0	0.53248405
6	0x3d9f1149	0.07766969
7	0xbf46b13d	-0.77614194
8	0x3f66a416	0.90094125
9	0xbf708fc8	-0.9396939
10	0x3f0f3186	0.5593494
11	0xbe9bcaf8	-0.3042829
12	0xbf445003	-0.7668459
13	0x3ed94b3a	0.42440206
14	0x3ef70316	0.48244542
15	0x3e918ca4	0.28427613
16	0x3eabe446	0.33572596
17	0x3e0bbb7a	0.13645735
18	0x3df14950	0.117815614
19	0x3da1fe5b	0.079098426
20	0x3ee6f684	0.45109951
21	0xbc370e74	-0.0111728795
22	0xbefbd8dc	-0.49188888
23	0x3f23d304	0.6399386
24	0xbf158650	-0.5840807
25	0x3ead792a	0.33881503
26	0xbe5fefe2	-0.21868852
27	0xbeb4514a	-0.3521827
28	0x3f0c1e39	0.54733616
29	0x3d314460	0.043278098
30	0x3f05f0f7	0.5232081
31	0xbd813014	-0.06307998

features.8.bias f4 [64]
0	0xbd5a52b5	-0.05330153
1	0xbf3f35e3	-0.746916
2	0x3ed5fdfc	0.41795337
3	0xbf65dddd	-0.8979166
4	0xbfb2a16a	-1.395551
5	0x3f872a75	1.0559832
6	0x3e94eaa6	0.29085273
7	0xbe36fe9f	-0.17870568
8	0xbf417f6d	-0.7558506
9	0xbea783a4	-0.3271762
10	0xbf1d6334	-0.61479497
11	0x3f721508	0.9456334
12	0x3f03fbb2	0.5155593
13	0x3ebafefb	0.3652266
14	0x3d86a7f7	0.065750055
15	0x3ee7c79e	0.45269483
16	0xbeca5a0e	-0.3952183
17	0x3f497b9e	0.7870425
18	0x3da57161	0.08078266
19	0xbed4199c	-0.41425788
20	0xbe9d073c	-0.30669582
21	0xbf7beb55	-0.98405963
22	0x3ef11847	0.47088835
23	0xbedbef5c	-0.42956054
24	0x3ebdff86	0.3710901
25	0x3f9c3df4	1.2206407
26	0x3e769c70	0.24083114
27	0xbee01269	-0.43764046
28	0xbeda7f38	-0.42675185
29	0x3ed9d7a5	0.42547336
30	0xbe9d8123	-0.30762586
31	0xbe3d6824	-0.18496758
32	0xbf93162c	-1.1491141
33	0x3e3d86a9	0.185084
34	0xbe8ab954	-0.2709452
35	0xbd7a32ef	-0.06108373
36	0xbf033a30	-0.5126066
37	0x3f8a5a1e	1.0808752
38	0xbf3e0478	-0.7422557
39	0x3cb76d8a	0.0223911
40	0x3d30b75e	0.043143623
41	0xbfd03de9	-1.6268893
42	0x3dbc115e	0.09183
43	0x3e4df624	0.20113426
44	0xbe84b10f	-0.25916335
45	0x3dad01e2	0.08447625
46	0x3edabe18	0.42723155
47	0xbf400dc8	-0.7502103
48	0x3f5386eb	0.82627743
49	0xbfecb08f	-1.8491381
50	0xbe7f746e	-0.24946758
51	0xbe406c0a	-0.18791214
52	0xbf4ba7d3	-0.79552954
53	0x3f06af58	0.52611303
54	0xbf23999c	-0.63906264
55	0x3fc9ec14	1.577517
56	0xbe48a46e	-0.19593975
57	0xbe9a41e2	-0.3012839
58	0xbee7db6c	-0.45284593
59	0xbf1c9c6c	-0.6117618
60	0x3dc49de0	0.09600425
61	0x3dc749c7	0.09730869
62	0xbe288e93	-0.16460638
63	0xbe96058c	-0.29301107

classifier.2.bias f4 [10]
0	0xbc35b25e	-0.011089889
1	0x3c87d9a6	0.016583275
2	0xbd3680ad	-0.04455631
3	0xbcba4c99	-0.022741603
4	0xbb588e49	-0.0033043793
5	0xbd2cdc2c	-0.04220216
6	0x3b53fd2f	0.0032346954
7	0x3c4df2d4	0.012570102
8	0x3c973d79	0.01846193
9	0x3d29c244	0.04144503

features.4.weight f4 [32, 16, 3, 3]
0	0x3d54f8e9	0.05199519
1	0x3d89c823	0.06727626
2	0xbc21ee07	-0.00988341
3	0x3de7ffb5	0.11328069
4	0xbd19baa7	-0.03753152
5	0xbe098a93	-0.13431768
6	0xbb97949c	-0.00462587
7	0x3d6f0c3b	0.058361273
8	0x3d168e6d	0.03675692
9	0xbda21737	-0.07914584
10	0xbc58c9ce	-0.013231708
11	0x3da935dc	0.08262226
12	0xbde0bfac	-0.109740585
13	0x3c68ff76	0.014221063
14	0x3df84657	0.12122791
15	0x3d5aada3	0.05338825
16	0x3d23308a	0.039841212
17	0x3d04003a	0.03222678
18	0xbd8dd5b0	-0.06925523
19	0xbdda7817	-0.106674366
20	0xbd898107	-0.06714063
21	0xbd149d96	-0.0362831
22	0xbe33271b	-0.17495386
23	0xbd59114c	-0.05299501
24	0xbdcbe7f1	-0.09956349
25	0xbd84aa90	-0.06477845
26	0xbc2bd5e3	-0.010488006
27	0xbc1dffda	-0.009643519
28	0xbc40ad85	-0.01176012
29	0x3c43d43a	0.011952454
30	0x3ccb8f0b	0.024848482
31	0x3d4f9705	0.050681133
32	0xbe04adc5	-0.12956913
33	0x3d485a3e	0.048914187
34	0xbdf3ae06	-0.11898427
35	0xbdf46907	-0.11934095
36	0xbd7c44d5	-0.06158908
37	0x3bab037d	0.0052189217
38	0xbdb4a259	-0.08820028
39	0xbdd9d613	-0.106365345
40	0xbdad0e9b	-0.084500514
41	0xbdb273ef	-0.08713519
42	0xbdcef9f8	-0.101062715
43	0x3d65862b	0.056036156
44	0x3dcfde7b	0.10149857
45	0x3c11d2ac	0.008900326
46	0x3dab09cb	0.08351477
47	0x3d22c005	0.039733905
48	0xbd17c88e	-0.0370565
49	0x3c429796	0.011876961
50	0x3d5a3987	0.05327752
51	0xbd8fdb82	-0.0702429
52	0x3d122c3a	0.03568671
53	0xbdb38cec	-0.08767113
54	0x3da20a3c	0.07912108
55	0xba643ba6	-0.0008706398
56	0x3d04f24f	0.032457646
57	0x3d8a6c40	0.06758928
58	0x3e0b39c8	0.1359626
59	0x3ddaf7bd	0.106917836
60	0x3d13a5a5	0.036046643
61	0x3d7a9d09	0.061184917
62	0x3d0f4f65	0.034987826
63	0xbdb05568	-0.0861004
64	0x3da4180d	0.080124
65	0x3d5c51f2	0.053789087
66	0x3d066ad1	0.03281671
67	0x3cf89649	0.030345099
68	0x3d47346e	0.048633985
69	0xbd945d5b	-0.07244369
70	0xbceac52b	-0.02865847
71	0x3cbb2509	0.022844808
72	0xbd229bdb	-0.039699417
73	0x3cbd4d42	0.023108128
74	0x3c033284	0.008007649
75	0xbd6d9b5f	-0.0580095
76	0x3ddf2202	0.10895158
77	0x3d9d9acc	0.07695541
78	0x3dbe7fba	0.09301706
79	0x3d3dbd33	0.046323013
80	0x3cf49ace	0.029858973
81	0x3cd5caa0	0.026097596
82	0x3cdb7197	0.026787562
83	0xbc958758	-0.018253013
84	0x3c8b746a	0.017023284
85	0xbccd011b	-0.025024941
86	0xbd9295ab	-0.07157453
87	0x3d4b5548	0.049641877
88	0xbd91d69f	-0.07121014
89	0x3d497a52	0.04918892
90	0xbcdb1b3e	-0.026746389
91	0xbd65d306	-0.05610945
92	0xbcdaca00	-0.02670765
93	0xbd929226	-0.07156782
94	0xbc0c3245	-0.008556907
95	0x3dd0bb6b	0.10191997
96	0x3daeb819	0.085312076
97	0x3c05081d	0.00811961
98	0xbd432b1a	-0.047648527
99	0xbae92c45	-0.0017789683
100	0x3d2e68fb	0.042580586
101	0xbc9fb904	-0.019497402
102	0xbd8569bf	-0.0651431
103	0x3d3bd650	0.04585868
104	0xbd0ccae6	-0.034373187
105	0x3c192f68	0.009349681
106	0xbd11a0c3	-0.035553705
107	0xbd8d9e8b	-0.06915005
108	0x3cba0f1b	0.022712281
109	0x3d43583f	0.04769158
110	0x3d1fd02b	0.039016884
111	0x3c3b990e	0.011450065
112	0xbdfb695c	-0.12275955
113	0x3ca410cc	0.02002754
114	0xbca22f00	-0.019797802
115	0xbccc3e01	-0.02493191
116	0xbd8e5e75	-0.0695161
117	0xbd103d69	-0.035214815
118	0x3dbb3f6d	0.09142957
119	0x3d882cf3	0.066491984
120	0xbd0f917b	-0.03505085
121	0xbda69a52	-0.08134903
122	0xbb637be1	-0.0034711289
123	0xbdcfb43d	-0.101417996
124	0xbd95b471	-0.07309807
125	0xbc82c44f	-0.015962748
126	0xbe1581e4	-0.1460033
127	0xbd0a67fd	-0.033790577
128	0xbdfc24b6	-0.123116896
129	0x3db85a72	0.09001626
130	0x39995eeb	0.00029253153
131	0x3d085aff	0.033289906
132	0x3cea65ce	0.028612997
133	0x3ccf5633	0.025309658
134	0x3e3e71ca	0.18598095
135	0x3bb0050f	0.005371697
136	0x3c987436	0.018610101
137	0xbdc28226	-0.0949748
138	0x3c8d3b7f	0.017240284
139	0x3d1bdb5b	0.03805099
140	0x3d5b8325	0.053591866
141	0x3d7ad84e	0.06124144
142	0x3bc4820b	0.0059969476
143	0xbbbd93c0	-0.0057854354
144	0xbcd4df9c	-0.025985532
145	0xbcdfe328	-0.027329996
146	0xbd8d81a4	-0.069094926
147	0x3d59c468	0.053165823
148	0xbd1ab7d6	-0.037772976
149	0xbdf81438	-0.121132314
150	0xbd4c093a	-0.049813487
151	0xbd9e568d	-0.07731352
152	0xbd52d388	-0.051471263
153	0x3d19c53c	0.037541613
154	0x3c5eda85	0.013601904
155	0xbd8a7dfd	-0.067623116
156	0x3d857545	0.06516508
157	0xbdcdce1f	-0.1004908
158	0xbd8221c7	-0.06354099
159	0xbd421017	-0.047378626
160	0x3d7d86a5	0.061895985
161	0x3dd12ea0	0.10213971
162	0xbd004ed3	-0.031325173
163	0x3d0aebda	0.03391633
164	0x3e03c1ce	0.128669
165	0x3dee5770	0.11637771
166	0x3d949382	0.072546974
167	0xbdaf0e9f	-0.085477106
168	0xbda331a4	-0.079684526
169	0xbda5acd4	-0.08089605
170	0xbe06e772	-0.13174227
171	0xbe0a9279	-0.13532437
172	0x3ba30227	0.004974622
173	0x3d454eea	0.04817096
174	0xbd93ec09	-0.072227545
175	0x3de538af	0.11192452
176	0x3d29315c	0.04130684
177	0x3ca718af	0.020397512
178	0x3c91e305	0.017808447
179	0x3d969cee	0.07354151
180	0x3d104ac5	0.035227556
181	0x3d43df45	0.04782035
182	0x3e2a4893	0.16629247
183	0x3ca92b6c	0.020650588
184	0x3db88fe9	0.09011824
185	0x3e049ba1	0.12949993
186	0xbe20d975	-0.15707953
187	0xbddac220	-0.10681558
188	0x3c883f26	0.016631674
189	0x3cd34b16	0.02579264
190	0x3d3ee225	0.046602387
191	0xbd5c7e8c	-0.053831622
192	0x3dcbbddf	0.099483244
193	0xbceb5c49	-0.028730528
194	0xbdd5aaf2	-0.10432996
195	0xbd50e90f	-0.051003512
196	0xbe28454b	-0.16432683
197	0xbd7de4e4	-0.061985865
198	0x3ca9a5a0	0.020708859
199	0x3c94470b	0.018100282
200	0xba6d1605	-0.00090441137
201	0x3d10583a	0.03524039
202	0xbac5ca25	-0.0015090151
203	0xbd62e102	-0.055390365
204	0xbd86ab00	-0.065755844
205	0x3cc35f4f	0.023849158
206	0x3d6bba48	0.0575507
207	0xbc05f19f	-0.008175283
208	0x3d97e6fe	0.07417105
209	0x3cd1c6ff	0.025607584
210	0x3da83acd	0.0821434
211	0x3c206313	0.009789246
212	0x3cea83f4	0.028627373
213	0xbe0aaca8	-0.13542426
214	0xbd9ee5c7	-0.0775867
215	0xbc894fba	-0.01676165
216	0x3dfe5983	0.12419417
217	0x3cba9e80	0.022780657
218	0xbd809bd0	-0.06279719
219	0xbd8ad018	-0.06777972
220	0xbde531ac	-0.11191115
221	0xbd9644a2	-0.073373094
222	0xbd6972ff	-0.056994434
223	0xbcfc02e0	-0.03076309
224	0x3c9b3e8d	0.018950725
225	0x3d5c56c1	0.053793672
226	0x3e15f001	0.14642335
227	0xbdb66997	-0.089068584
228	0xbd43dae0	-0.047816157
229	0x3b1ef374	0.0024253996
230	0xbd945121	-0.072420366
231	0xbdd93082	-0.10604955
232	0x3cb43b58	0.022000954
233	0xbcc58c88	-0.024114862
234	0x3d84b313	0.06479468
235	0x3da1afa1	0.07894827
236	0x3bc718d2	0.006075957
237	0xbbb4ad2a	-0.005513807
238	0xbd093d4c	-0.033505723
239	0x3c0e2f50	0.008678272
240	0xbdda3815	-0.10655228
241	0xbdcff82d	-0.10154758
242	0x3d6d9675	0.058004815
243	0xbd70a4bc	-0.058750853
244	0x3b1f51ad	0.0024310157
245	0x3d9fabb2	0.0779642
246	0x3d98fdf1	0.074703105
247	0x3e1159b6	0.14194378
248	0xbd81c01c	-0.0633547
249	0xbc4eced5	-0.012622555
250	0xbdaabc9a	-0.08336754
251	0x3c81c59f	0.015841303
252	0xbcf5cf90	-0.0300062
253	0xbcc421a4	-0.023941822
254	0xbdc7009f	-0.09716915
255	0x3d55c91e	0.052193753

features.8.weight f4 [64, 32, 3, 3]
0	0xbc481357	-0.012211642
1	0x3c297154	0.010341961
2	0x3d3ca455	0.046055157
3	0x3db9afd8	0.09066743
4	0x3d957b29	0.072988816
5	0xbd1d70d3	-0.038437676
6	0xbd5a32c1	-0.05327106
7	0x3d949f83	0.07256987
8	0x3d8f20e2	0.06988694
9	0xbc8cb299	-0.017175006
10	0xbdea3e0a	-0.11437614
11	0xbe213a56	-0.1574491
12	0x3d9c57a0	0.07633901
13	0x3dd4952f	0.10380017
14	0xbb448966	-0.0029989122
15	0x3d9e8836	0.07740824
16	0x3db0e47f	0.08637332
17	0xbdd75b1f	-0.10515427
18	0x3d08d558	0.033406585
19	0x3c1e06ce	0.009645177
20	0xbc48ac23	-0.012248072
21	0x3bee2a27	0.0072682085
22	0x3ca8e41f	0.02061659
23	0x3d2f5439	0.04280493
24	0x3d889741	0.066694744
25	0x3de4248d	0.11139784
26	0x3dcb1114	0.09915367
27	0xbd17f476	-0.03709837
28	0xbc0f1552	-0.0087331105
29	0xbdd5b392	-0.10434641
30	0xbd8a5175	-0.06753818
31	0xbceeb489	-0.02913882
32	0xbce1fa3f	-0.027585147
33	0xbd15c73d	-0.03656696
34	0xbd88fcdc	-0.06688854
35	0xbda17d10	-0.07885182
36	0x3d8feb25	0.07027272
37	0xbd0bca1b	-0.03412829
38	0xbc1b3a60	-0.009474367
39	0xbd070f72	-0.032973714
40	0x3ce1e0a9	0.027572947
41	0xbd0c76e8	-0.034293085
42	0xbd93d69b	-0.07218667
43	0xbb073815	-0.0020632793
44	0xbd84917d	-0.06473062
45	0xbdd8b784	-0.10581878
46	0x3cf68757	0.030093832
47	0xbe08cc21	-0.13359119
48	0x3cfa36bc	0.030543678
49	0xbca3c0f0	-0.01998946
50	0xbd5d4f9b	-0.054030996
51	0x3a8f22eb	0.001092044
52	0xbb78aa53	-0.0037943318
53	0x3be158ad	0.006877026
54	0xbbde578c	-0.0067853387
55	0xbdd399d8	-0.10332078
56	0xbd8807c5	-0.06642107
57	0xbcbe7a7b	-0.023251763
58	0x3c2e3bfa	0.010634417
59	0x3d636a1e	0.055521123
60	0x3d86cdd9	0.06582231
61	0x3d85cafd	0.065328576
62	0xbcfc28e2	-0.030781213
63	0xbb6b7e6a	-0.0035933503
64	0x3d15fbd4	0.036617115
65	0x3cb1f3b6	0.021722656
66	0xbc8ffa69	-0.01757546
67	0x3da82962	0.08211018
68	0xbd323d6c	-0.043515608
69	0x3bc5ba15	0.0060341456
70	0x3d9bf545	0.07615141
71	0x3d213492	0.039356776
72	0x3d35088d	0.044197608
73	0x3e14cc89	0.14531149
74	0x3d699560	0.05702722
75	0x3e0e0c62	0.13871911
76	0x3c519207	0.012791163
77	0xbe007158	-0.12543237
78	0x3d5f8933	0.054574203
79	0x3d06dc53	0.03292496
80	0xbd6ac4b9	-0.057316516
81	0xbd209168	-0.03920117
82	0x3da18c2e	0.07888065
83	0x3d953c05	0.072868384
84	0x3d34308b	0.043991607
85	0x3d299f57	0.041411724
86	0x3ce46b45	0.027883181
87	0xbcf48163	-0.029846853
88	0xbb88ef4b	-0.0041789166
89	0xbd3b0b54	-0.0456651
90	0xbda7da01	-0.08195878
91	0xbd2e322f	-0.042528328
92	0xbbea5302	-0.0071510086
93	0x3be4ed45	0.0069862925
94	0x3da16024	0.078796655
95	0xbd6ce08a	-0.057831325
96	0x3c69b0c6	0.0142633375
97	0xbdc1469a	-0.09437294
98	0xbc959ed3	-0.01826421
99	0xbd1514c8	-0.03639677
100	0x3c67783b	0.014127786
101	0xbda90dbc	-0.08254573
102	0xbc07afbc	-0.008281644
103	0xbddbc8a3	-0.10731628
104	0x3d8adc3f	0.0678029
105	0x3beed6e0	0.0072887987
106	0xbcb7c2e8	-0.022431806
107	0xbabe66ec	-0.0014526523
108	0xbd394de2	-0.04524029
109	0xbd56cb4a	-0.052439965
110	0xbdceef98	-0.10104293
111	0x3dc08e30	0.0940212
112	0x3b04cb20	0.0020262673
113	0xbc4e84c4	-0.012604896
114	0xbd32d208	-0.043657333
115	0x3d30a2cd	0.04312401
116	0x3dfabbe1	0.12242866
117	0x3cd3de08	0.025862709
118	0x3dc6b064	0.097016126
119	0x3da03877	0.0782327
120	0xbdf06c9a	-0.11739464
121	0xbc467a9b	-0.012114192
122	0xbd9387af	-0.07203614
123	0xbd5cede0	-0.053937793
124	0xba547b88	-0.0008105566
125	0xbcb168eb	-0.021656474
126	0x3de42205	0.11139301
127	0xbd833bf1	-0.06407917
128	0xbbc0aa50	-0.005879678
129	0x3dfbdd1e	0.12298034
130	0x3e117743	0.14205651
131	0xbe0f20cd	-0.13977356
132	0x3cb177a0	0.021663487
133	0x3bfdceb3	0.0077455877
134	0xbe0211b8	-0.12702072
135	0x3d96319f	0.07333683
136	0x3e3c9916	0.18417773
137	0x3dad15a5	0.08451394
138	0x3cd66d1b	0.026175072
139	0x3d03759f	0.032094594
140	0xbcbf06f1	-0.02331874
141	0xbd858106	-0.0651875
142	0x3bf9cec9	0.0076235277
143	0xbc98c2fc	-0.018647663
144	0xbce71ea1	-0.028212847
145	0xbd459fb9	-0.048248027
146	0xbc7dcb30	-0.015490338
147	0x3b78403b	0.0037880081
148	0x3cda2205	0.02662755
149	0x3d3b96eb	0.045798223
150	0x3c9d3dcd	0.019194508
151	0xbcbc6527	-0.022997452
152	0x3dd30bb4	0.103049666
153	0xbd35fd81	-0.044431213
154	0xbb8d0540	-0.0043036044
155	0x3acde8a5	0.0015709592
156	0xbbaf127c	-0.0053427797
157	0x3d558288	0.052126437
158	0xbd14f91b	-0.036370378
159	0xbe1447b6	-0.1448048
160	0xbda416d9	-0.0801217
161	0xbda84cc4	-0.08217767
162	0x3ce84cb9	0.028356897
163	0x3d150021	0.036377076
164	0x3d8767e8	0.066116154
165	0x3cf9f840	0.030513883
166	0xbcadcd3b	-0.021216026
167	0x3d00b47c	0.031422123
168	0x3d9edc9a	0.0775692
169	0x3d4b8e51	0.04969627
170	0x3d91a189	0.071108885
171	0xbd82c5f6	-0.06385414
172	0xbd4587de	-0.048225276
173	0xbc786338	-0.015160374
174	0x3d243d68	0.040097624
175	0x3d6b0ee6	0.057387255
176	0x3d4f6edd	0.050642837
177	0xbdd85b75	-0.10564319
178	0x3ca02149	0.019547122
179	0xbdeb27ab	-0.114821754
180	0x3cd4cdff	0.025977133
181	0x3df73010	0.12069714
182	0x3d8febba	0.07027383
183	0xbdb301c8	-0.08740574
184	0xbdad2d4f	-0.084559076
185	0xbe04f489	-0.12983908
186	0x3d07ed3c	0.03318523
187	0xbe17d13c	-0.1482591
188	0xbd002f7f	-0.031295296
189	0x3cefa58f	0.02925375
190	0x3c68637c	0.014183875
191	0xbce8364b	-0.028346201
192	0xbd1964bf	-0.037449595
193	0x3dda8eae	0.10671745
194	0x3b6581f1	0.0035020078
195	0xbd958b04	-0.07301906
196	0x3d93657a	0.071970895
197	0x3bc9c682	0.006157697
198	0xbd51c500	-0.051213264
199	0x3b9a41f4	0.0047075693
200	0xbb1ca8ca	-0.0023904317
201	0x3c84c535	0.016207317
202	0x3d5038f4	0.050835565
203	0x3c2d3dcf	0.010573818
204	0xbe533f91	-0.20629717
205	0xbd6bf8ce	-0.057610326
206	0xbde9e821	-0.11421228
207	0xbd66fc1e	-0.05639278
208	0xbdc977d3	-0.09837308
209	0xbd9944d5	-0.07483832
210	0x3dd20922	0.10255648
211	0x3ac58347	0.0015069031
212	0x3d6d713c	0.057969317
213	0xbd4ade96	-0.04952868
214	0x3db18920	0.08668733
215	0xbcd15e92	-0.02555779
216	0x3a8b300d	0.0010619179
217	0x3dcdba8a	0.10045345
218	0x3d1d5ebb	0.03842042
219	0xbbd1bd14	-0.0064007137
220	0xbc6e9060	-0.014560789
221	0x3e071493	0.13191442
222	0x3d0c80fa	0.03430269
223	0xbe00e9b2	-0.12589148
224	0xbcb920a6	-0.022598576
225	0x3d8b2816	0.06794755
226	0xbbe5603f	-0.006999999
227	0x3bea78eb	0.007155528
228	0x3ccb30a5	0.024803469
229	0xbcb9e307	-0.022691263
230	0xbdf53c52	-0.11974396
231	0xbbf69393	-0.0075249164
232	0xbdce5d64	-0.100764066
233	0xbdcbd9f4	-0.09953681
234	0x3d3fa4d7	0.046788063
235	0xbb912c00	-0.004430294
236	0x3c932adf	0.017964778
237	0xba2b09c1	-0.0006524586
238	0xbd9093a4	-0.0705941
239	0x3adac002	0.0016689303
240	0xbcf211a3	-0.029549425
241	0xbb89fd52	-0.0042111063
242	0xbd9e0901	-0.07716561
243	0xbdae3b71	-0.08507431
244	0xbd7518a7	-0.059837963
245	0xbc3ca3f4	-0.011513699
246	0xbc834af6	-0.016026955
247	0xbdcf94ca	-0.10135801
248	0x3d99cc72	0.07509698
249	0x3dc15f67	0.09442025
250	0x3d3b51ab	0.04573218
251	0x3dce11f5	0.10062019
252	0x3c7297b6	0.0148066785
253	0xbccb08d4	-0.024784483
254	0x3ccde908	0.025135532
255	0xbd1e28ac	-0.038613006

classifier.2.weight f4 [10, 576]
0	0x3d0d48f0	0.034493387
1	0x3a28a5a0	0.00064333715
2	0xbd7eb4cd	-0.062184144
3	0xbd8e54de	-0.06949781
4	0xbbcf43e4	-0.006325232
5	0xbcd60be6	-0.02612872
6	0x3d01996b	0.03164045
7	0x3c68316f	0.014171942
8	0x3d8507f8	0.064956605
9	0xbdc1f0c5	-0.09469751
10	0xbdee42c2	-0.11633827
11	0xbe357955	-0.17722066
12	0x3c903bd0	0.017606646
13	0xbcae93eb	-0.021310767
14	0xbc12e5a9	-0.008965888
15	0xbccfb7ed	-0.025356257
16	0x3c9f2e07	0.019431127
17	0x3d5154ed	0.051106382
18	0xbb01b1d3	-0.001978983
19	0x3c95b9ae	0.018277016
20	0xbb9b2a02	-0.0047352323
21	0x3ddfa66b	0.109204136
22	0xbc6ef0f5	-0.014583816
23	0x3d12b4ef	0.035817083
24	0x3bd07f1c	0.006362809
25	0x3d289357	0.04115614
26	0xbde9d183	-0.11416914
27	0xbce92ef1	-0.028464766
28	0xbde8451e	-0.11341308
29	0xbe0d013e	-0.13770005
30	0x3d1feadb	0.039042335
31	0xbaa26fed	-0.0012392976
32	0xbd308be7	-0.04310217
33	0xbd3ab481	-0.0455823
34	0x3da45d24	0.08025578
35	0xbd5a6839	-0.05332205
36	0x3d694835	0.056953628
37	0x3cea8e61	0.028632345
38	0xbcf0d363	-0.029397672
39	0xbd14b43f	-0.03630471
40	0x3bf11774	0.007357532
41	0xbd2e8d4b	-0.042615216
42	0xbd538273	-0.051638078
43	0xbd4b50f5	-0.049637754
44	0xbbd7fe79	-0.006591615
45	0x3d28c544	0.041203752
46	0xbd95305e	-0.07284616
47	0x3d3ffb0a	0.04687027
48	0xbce935cb	-0.028468033
49	0xbc8cbc1b	-0.01717954
50	0xbc74e2eb	-0.01494668
51	0x3cf8234d	0.03029027
52	0x3c96d498	0.01841192
53	0x3d170a93	0.03687532
54	0x3bdeeeaf	0.0068033556
55	0x3c2d5f30	0.0105817765
56	0x3bad2a7c	0.0052846055
57	0x3d52b998	0.051446527
58	0x3d17ac73	0.037029695
59	0x3d0f3646	0.03496387
60	0x3d0fd1c2	0.03511215
61	0x3cca3251	0.024682196
62	0xbd023432	-0.03178806
63	0xbcce1b14	-0.025159396
64	0xbdef70b8	-0.11691421
65	0xba9cef4c	-0.0011973171
66	0xbd58d1fd	-0.052934635
67	0xbd5848cc	-0.0528038
68	0xbd3c4115	-0.045960505
69	0x3cf99386	0.030465852
70	0x3db4d4b0	0.088296294
71	0x3da450de	0.08023237
72	0xbdab2e5f	-0.08358454
73	0xbcf4ece0	-0.029898107
74	0xbd86c1c8	-0.065799296
75	0x3d5e95a2	0.05434192
76	0x3c90db14	0.01768259
77	0x3d83313c	0.06405875
78	0xbca39405	-0.019968042
79	0xbc3ffb63	-0.01171765
80	0xbd01b127	-0.031663086
81	0xbd37d1c5	-0.044877786
82	0x3d11d03b	0.035598975
83	0x3cc26cf8	0.023733601
84	0x3ae8a73a	0.0017750033
85	0xbd40f4aa	-0.04710833
86	0x3d374e40	0.04475236
87	0x3d4160ce	0.04721146
88	0xbe1d8bcd	-0.15385361
89	0x3b3ba950	0.0028634854
90	0x3c9d4ef8	0.019202694
91	0xbc0a1eee	-0.008430226
92	0xbd7dd356	-0.061969124
93	0xbdf31c2c	-0.11870608
94	0xbcefa7af	-0.029254762
95	0xbcfaaf7c	-0.030601256
96	0xbd244fb6	-0.04011508
97	0x3d28da92	0.04122407
98	0x3cd834ab	0.026392302
99	0xbc31a617	-0.010842822
100	0xbd39d0aa	-0.045365013
101	0x3dc17f3d	0.09448097
102	0xbb826d99	-0.00398035
103	0xbc32db3a	-0.0109165255
104	0x3c85fc68	0.016355708
105	0x3d23cc11	0.039989535
106	0x3d105f29	0.035247
107	0xbd5e977a	-0.054343678
108	0xbc9d8746	-0.019229542
109	0x3ccf00c3	0.025268918
110	0x398627f5	0.00025588242
111	0xbb438dcf	-0.0029839163
112	0x3c83231c	0.016007952
113	0xbdb313b0	-0.087439895
114	0xbca2976e	-0.019847598
115	0x3da78d2d	0.08181224
116	0xbd5bd7b7	-0.05367252
117	0xbbf5a775	-0.007496769
118	0x3c19fe45	0.0093990015
119	0xbdb10b94	-0.086447865
120	0xbbe76f06	-0.0070627956
121	0xbc19cdfb	-0.0093874885
122	0xbd133b31	-0.03594512
123	0x3d6968dd	0.05698477
124	0xbd7e9fab	-0.06216399
125	0x3d30860a	0.04309658
126	0xbda74a84	-0.081685096
127	0x3c9c3491	0.019068034
128	0xbd89242a	-0.06696351
129	0x3da73949	0.08165223
130	0x3d434e71	0.04768223
131	0x3d902e06	0.07040028
132	0x3d0febed	0.035137106
133	0xbd092160	-0.033479095
134	0xbdd5cec3	-0.10439827
135	0x3d59af30	0.053145587
136	0x3d4a6490	0.04941231
137	0xbd10eaca	-0.035380162
138	0xbd14f648	-0.036367685
139	0xbde4c9b8	-0.11171287
140	0xbde1e534	-0.11030045
141	0x3ca0c39a	0.01962452
142	0x3d08b533	0.03337593
143	0x3cb0af89	0.021568077
144	0x3c3909a8	0.011293806
145	0x3cb61adb	0.022229603
146	0x3cda0852	0.026615296
147	0x3c3c8b11	0.011507765
148	0xbddc92f8	-0.107702196
149	0xbcf55e26	-0.02995212
150	0xbdca9dc3	-0.09893372
151	0x3d679063	0.056534182
152	0x3d6f1910	0.05837351
153	0xbd2ece30	-0.042677104
154	0x3d1c6492	0.03818185
155	0x3d8758f7	0.066087656
156	0xbcbc1d62	-0.02296323
157	0xbd4fb89e	-0.050713174
158	0xbb77fbf0	-0.0037839375
159	0x3d848ee1	0.064725645
160	0x3d97f5f2	0.07419957
161	0xbde9df98	-0.114196
162	0x3c89a190	0.016800672
163	0x3d0cb345	0.034350652
164	0x3c92ef9a	0.017936517
165	0xbd15565a	-0.036459304
166	0xbc4552ab	-0.012043635
167	0xbd57d5fc	-0.052694306
168	0xbd9cff3a	-0.07665868
169	0x3d800531	0.0625099
170	0xbcfba8d4	-0.030720152
171	0xbd5031fe	-0.050828926
172	0xbd1d9c7d	-0.038479317
173	0xbbf6484e	-0.0075159436
174	0xbc887796	-0.016658586
175	0xbdbf5a1f	-0.09343361
176	0xbd8e2ae8	-0.069417775
177	0x3c0d943d	0.0086413
178	0xbd787749	-0.060660634
179	0x3bd3c28b	0.0064624003
180	0x3c8ea1fa	0.01741122
181	0x3b8689a3	0.004105763
182	0x3d9e93a8	0.07743007
183	0x3c8e5914	0.01737646
184	0xbd5bfd93	-0.053708624
185	0x3d43a893	0.047768187
186	0x3d5ad657	0.053427067
187	0x3c1377f5	0.009000768
188	0xbdecefb8	-0.1156916
189	0xbd84d267	-0.064854436
190	0x3c1de3f3	0.009636867
191	0xbd74943d	-0.059711684
192	0x3b5d3359	0.003375253
193	0x3d16dffd	0.036834706
194	0xbcdc1ea0	-0.026870072
195	0x3cf2953a	0.029612172
196	0xbdd4f490	-0.10398209
197	0x3d3dad7b	0.046308022
198	0xbd614d42	-0.05500532
199	0x3b03dc85	0.0020120454
200	0x3d0a7ab3	0.03380842
201	0x3d05150f	0.032490786
202	0xbc340506	-0.010987526
203	0xbce34fa2	-0.027747933
204	0xbd045230	-0.032304943
205	0xbd1fd68e	-0.039022975
206	0x3da70fb7	0.08157294
207	0xbdc7199c	-0.097216815
208	0x3d94b8e8	0.072618306
209	0x3db464a8	0.08808261
210	0x3c7287da	0.014802897
211	0x3ce46e46	0.027884614
212	0x3c583784	0.01319683
213	0x3cc9f2cb	0.024651906
214	0xbc5ccf07	-0.013477094
215	0x3ca50434	0.020143606
216	0x3b44da6f	0.0030037423
217	0x3bddb31a	0.0067657353
218	0x3cb7ebea	0.02245136
219	0x3b395834	0.0028281333
220	0x3b2eeb76	0.0026690639
221	0xbe0197e8	-0.12655604
222	0x3da8d911	0.08244527
223	0xbcf7ec38	-0.030264005
224	0x3d8baa92	0.06819643
225	0x3cb2e613	0.021838224
226	0x3d7a0ee6	0.061049365
227	0x3d93c2a8	0.07214862
228	0x3d801163	0.06253316
229	0xbda27106	-0.07931714
230	0x3d806adc	0.06270382
231	0x3d50ae99	0.05094776
232	0xbc81e49f	-0.015856085
233	0xbdaab25f	-0.08334803
234	0xbd3c2706	-0.045935653
235	0xb8459628	-4.7108304e-05
236	0x3d378923	0.04480852
237	0xbd663619	-0.056203935
238	0xbdcf6b5c	-0.10127899
239	0x3d3442aa	0.04400889
240	0xbc464810	-0.012102142
241	0xbc1aa56c	-0.009438854
242	0x3db4ce87	0.088284545
243	0xbd88ed24	-0.06685856
244	0xbcc15d41	-0.023604037
245	0xbdabbc72	-0.083855525
246	0xbd8f05d1	-0.06983531
247	0x3c160545	0.00915653
248	0xbcaec24e	-0.021332886
249	0xbd36ae6b	-0.04459993
250	0xbd3738cb	-0.044731896
251	0x3c9063f6	0.01762579
252	0x3bd56279	0.006511983
253	0x3d2a71b5	0.041612346
254	0xbd5e2475	-0.054233987
255	0x3cd6a134	0.026199915
