model/greek_cnn.onnx (onnx, 397364 bytes, 8 tensors)

features.0.weight f4 [32, 1, 3, 3]
00000000: fffc 27be 2d22 003f 1fc2 c5be e123 10bf
00000010: ec78 04bf d614 d9be 8be7 e9be 134c 073f
00000020: 59eb 333e e106 de3d 074b 683e 012f 6f3e
00000030: 12c3 183e 401f d43e ed21 c0bd f505 013e
00000040: 5071 8b3e 2829 3fbe e53c a23e da94 173f
00000050: 3d92 32be 047d d2be 6662 dabe 9ffa 8c3f
00000060: fd95 ac3f b5a0 5bbf 19cc 70be 6a2f c9bf
00000070: 1c1e acbf 746c 733e d524 a83f b2ce a13f
00000080: ff91 d63c 562b aebe 540a 88be 45a9 a7be
00000090: 0f58 32bf 71a5 2cbf 9567 3ebf d1e7 0a3f
000000a0: 91fc 933e efcd 9d3e 68dd 63be 773a 103f
000000b0: c608 2cbf 26f6 c93e cfe7 d4be 8b35 f6be
000000c0: ed67 4c3f 8827 d63e e7ee 44bf d7fc 07bf
000000d0: cfbd ea3c 83cf 37bf 3a03 463e 6b55 4e3c
000000e0: 9c2a 23bf 6b8d bf3c cccb 6bbf 06ac 143c
000000f0: 7b6c 3abf 1113 49bb d6dd 223f 3a05 d8be
00000100: a5bb 24bf 8018 5b3f 356c 43bf a6fd aa3d
00000110: 8751 4abf ecb1 2ebf a5a2 203f bbcf 303f
00000120: 4359 c13e 416f 31bf 3df9 b8be 9a76 4f3d
00000130: b4c5 f6be f58e b33e 2c8d 563e 3e69 28be
00000140: e5a1 21bf 97ac 1b3f 0a17 373d af60 833e
00000150: 63c0 84bf 62cd dbbe 1c23 07bf b1b9 273f
00000160: 12cb 90be 365b ccbe 77fa 883f b0c0 963f
00000170: d255 b63e 30c0 8f3f d003 b8bf 8d2a 90bf
00000180: 028e 9bbf ba2b 4fbf af8b 7b3f 9153 8cbe
00000190: 439d 88be 7635 19bf 8723 22bf 1778 15bf
000001a0: 4cb5 3ebe 947b 0a3f 12c9 5e3f 12f0 b9bd
000001b0: 8c0d dfbf e009 93be 9998 b93f 8d04 36bf
000001c0: 503b 9e3e 651d b43f 9142 103f ca6a bbbe
000001d0: 0d7f 62bf f0f1 ae3d bece cd3e 18e3 88be
000001e0: 548e cc3d 951e 853e 6277 213d af5c 3b3e
000001f0: 9847 ce3e 34ce af3d 6247 873f 2860 773f
00000200: cc63 8dbe b6fc 98bf 6154 de3d de43 12be
00000210: ab70 49bf 2d85 85be 4620 f6be 8c36 983e
00000220: 1ae6 3a3f 4c95 803c a085 d23e 7eea 18bf
00000230: 82f4 18bf 9c98 68bf c270 b33e 4a80 40bf
00000240: 5ff0 8fbe 8b53 cfbd 9861 c73e 5303 023f
00000250: 66ff 5cba fbfe fabd e7f5 d43e 39aa c2bc
00000260: 1f85 0d3f 6827 15bd 320b b4be 9d6d 9bbf
00000270: d436 0abf 27fd 7d3f fc15 94bf b3a7 813f
00000280: e452 96be 5ef3 523f 54af 2a3f 59b6 e4bd
00000290: b4d7 183f 6bf6 f83e 7d6b 7dbe 434a f03e
000002a0: b1a7 87be c639 abbe a101 5fbd b0fe a73f
000002b0: eda4 803e bf00 31bf 842c 4a3f 4d85 c0be
000002c0: f366 48be d41f 683e 040a 89bf 32ce 08bf
000002d0: a09d 013f c5e7 93bf 2e4a 87bf 2178 6bbf
000002e0: 8114 6a3f e688 08bc e592 b0be 82ef efbd
000002f0: 2e81 903f 32cd 16bf dbe1 15bf 82f8 dc3e
00000300: e5dd c63f c9da 82bf d36d 833e 9059 b63f
00000310: b964 cabd 7253 b3bf deb3 e1bb 53b7 883e
00000320: 1cdf 9d3e aec4 9c3e 05a2 8cbd b8c4 603d
00000330: 7e46 023f 1263 dc3b ac94 87bd e1e7 593e
00000340: 835b c63e 6b6e ccbc 6836 863e 86b4 ddbe
00000350: d947 f93e a175 ae3e a314 d63e 7b14 cabe
00000360: fa00 50bf c6bb acbe 7bfc 8fbf a992 223f
00000370: 96b3 8cbf c9b6 2c3f 35be 05bf a129 803f
00000380: 33b3 743f c3a8 b6bf 59da 963e 475e 713c
00000390: 1fa6 96bf 0815 973e 4fcf ccbe db6a d73f
000003a0: 20a2 9e3e 73f0 ebbe a599 4dbf bfc5 b13f
000003b0: 6760 21bf 4ad7 c1be 366c d7bc db57 4c3f
000003c0: 83ab 0c3f 1592 88bf 05e7 8cbf 2a16 debe
000003d0: 5511 ab3f e027 f6be 56da 35bf 0cc0 04bf
000003e0: bf9c a13d 804b afbf 93c0 6c3e 64d1 973f
000003f0: 6ea9 1dbf 6613 863e 4a7e f8be cce3 45be
-0.16405104 0.5005215 -0.38624665 -0.56304747 -0.5174701 -0.4239871 -0.45684466 0.52850455
0.17570247 0.10841156 0.2268487 0.23357774 0.14918163 0.41430092 -0.09381471 0.12599929
0.27234888 -0.18668044 0.31687084 0.59211504 -0.17438598 -0.41111004 -0.42653197 1.1013983
1.3483273 -0.85792094 -0.23515357 -1.5717595 -1.3446689 0.2377184 1.313624 1.2641203
0.026192663 -0.34017438 -0.2657038 -0.3274633 -0.69665617 -0.67439944 -0.74376804 0.54259974
0.2890363 0.30821177 -0.22252429 0.5633921 -0.6720089 0.3944561 -0.41583106 -0.48087725
0.7984608 0.41827035 -0.76927036 -0.5312018 0.02865496 -0.7180101 0.19337168 0.012593607
-0.6373689 0.023382863 -0.92107844 0.009074217 -0.7282178 -0.003068153 0.63619745 -0.42191488
-0.6434882 0.8558426 -0.76336986 0.08349161 -0.7903065 -0.6824024 0.62748176 0.6906697
0.37763414 -0.69310385 -0.36127654 0.050650217 -0.4819771 0.35070005 0.2095229 -0.16446397
-0.63137656 0.60810226 0.044699706 0.256597 -1.0371212 -0.42930132 -0.5278795 0.6551772
-0.2827993 -0.39913338 1.0701436 1.1777554 0.3561235 1.1230526 -1.4376163 -1.1262985
-1.2152712 -0.80926096 0.98260015 -0.27407506 -0.2668248 -0.598472 -0.6333546 -0.5838637
-0.18623847 0.54094815 0.8702556 -0.09078993 -1.7426009 -0.28718472 1.4499694 -0.71100694
0.30904627 1.407147 0.5635157 -0.3660491 -0.88475114 0.0854224 0.40196794 -0.2673576
0.099880844 0.25999895 0.039420493 0.18297075 0.40288997 0.08584252 1.0568659 0.966311
-0.276152 -1.1952121 0.10855938 -0.14283702 -0.7868754 -0.26078168 -0.48071498 0.29729116
0.7300736 0.01569619 0.41117573 -0.59732807 -0.5974809 -0.90857863 0.35046965 -0.75195754
-0.28113076 -0.101233564 0.38941646 0.5078632 -0.00084303913 -0.12255665 0.4159386 -0.02376281
0.5528125 -0.036414534 -0.3516479 -1.2142826 -0.5398991 0.99214405 -1.1569209 1.0129303
-0.29360116 0.824026 0.6667378 -0.111675926 0.59704137 0.48625502 -0.24748035 0.46931657
-0.26495126 -0.33442515 -0.054444913 1.31246 0.25125828 -0.69141763 0.78974175 -0.376017
-0.19570522 0.22668391 -1.0706182 -0.5343963 0.5063114 -1.1555105 -1.0569513 -0.9198018
0.91437536 -0.00833342 -0.34487072 -0.11715604 1.1289423 -0.58906853 -0.58547753 0.43158346
1.5536467 -1.0223018 0.25669727 1.4246082 -0.098824926 -1.400984 -0.006887897 0.26702365
0.3083428 0.30618805 -0.0686684 0.054875106 0.5088881 0.0067256773 -0.06620154 0.21279861
0.38741693 -0.024954995 0.26213384 -0.4330179 0.48687628 0.3407412 0.4181262 -0.3946875
-0.8125149 -0.3373701 -1.1248926 0.63505036 -1.0992305 0.6746641 -0.5224336 1.0012704
0.95585936 -1.4270252 0.2946346 0.01473195 -1.1769446 0.29508233 -0.40001914 1.6829485
0.30983067 -0.46081886 -0.8031257 1.3888472 -0.63037723 -0.37859565 -0.026296716 0.79821557
0.54949206 -1.0669581 -1.1008002 -0.43376285 1.3364664 -0.48077297 -0.7103628 -0.5185554
0.07891225 -1.3694916 0.23120336 1.1860776 -0.61586654 0.26186675 -0.4853385 -0.19325179

features.0.bias f4 [32]
00000000: 3c04 52bf a7e5 1e3f af72 183f 89ea 2dbf
00000010: 1f1d 53bf eaae 4fbf 00e4 60bf f25f 26bf
00000020: ea35 4abf f986 3abf 99a1 b33d 0104 4bbf
00000030: f27b 9dbe 3ac8 283f 232c 15bf f9c4 1fbf
00000040: d6fc 133f b750 febe 3cbb 253f 769f a2be
00000050: eab3 2cbf b03f 82bd 6411 243f cb3a 1f3f
00000060: 4c10 dbbe 7f4d 06bf d2de 36bf 3901 ffbe
00000070: c8bc 56bf 0b10 58bf baee 62bf 4422 093f
-0.8203771 0.6206917 0.59549993 -0.67936 -0.8246631 -0.8112627 -0.878479 -0.6499015
-0.78988516 -0.728622 0.08771057 -0.79302984 -0.30758625 0.6593052 -0.5827047 -0.6240993
0.5780767 -0.49670956 0.6473882 -0.31762284 -0.6746203 -0.06359804 0.64089036 0.62199086
-0.4278587 -0.52462 -0.71433747 -0.4980562 -0.8388181 -0.8439948 -0.8864552 0.5356791

features.4.bias f4 [64]
00000000: e47b fc3d 8b5a 163e cef1 0a3f b8f4 323e
00000010: 6d24 043f 3e85 ec3e 7051 96bc 4973 183e
00000020: 7da4 e23e 71ec 343e 1068 9bbd 2c5a f63e
00000030: 6676 d53f 7e33 a13e 4c20 263f 79f4 a43e
00000040: 927e 02bf 0665 29be bbe8 b03f 7871 02bd
00000050: 9d45 09bf 371f 79bf 98f8 343f ae42 0b3f
00000060: 3e9a b93f 548d 11be 7ea1 5e3f 2546 4bbf
00000070: a447 a13e 8c70 623e 9a9c 2abf 2bd5 633f
00000080: 8047 f53c 3878 babd e8fa 5cbd d6a8 063f
00000090: e02d 803d f089 8d3e f8db c93e 7466 7c3e
000000a0: da7d fd3d 423d c3bc c0ca b0bc 70cc 4a3d
000000b0: 8785 c43d 0d52 803e e542 8d3f ddf1 a23e
000000c0: f481 353f bd54 c33f b28c 18bf e5c2 573f
000000d0: 8255 653f 3014 85bc dcfe 5d3f 6d8f cf3e
000000e0: d294 013e 3a2a 163f 86dc c43e 5af5 8c3e
000000f0: 02f1 e73e 2f25 473f 4bef ddbe 8498 b43e
0.12328318 0.14682977 0.54275215 0.17476165 0.5161808 0.46195406 -0.01834938 0.14887728
0.4426612 0.1766832 -0.07588208 0.4811567 1.6676757 0.31484598 0.6489303 0.32217768
-0.5097438 -0.16542444 1.3821024 -0.031846493 -0.53621846 -0.97313255 0.70691824 0.5439862
1.4500196 -0.14214069 0.8696517 -0.7940391 0.3149997 0.22113246 -0.66645205 0.88997144
0.02994132 -0.09104961 -0.05395022 0.52601373 0.0625875 0.276443 0.39425635 0.24648458
0.1237752 -0.023832921 -0.021581054 0.049511373 0.09595781 0.250626 1.103604 0.31825152
0.7090142 1.5260235 -0.59589684 0.8428176 0.895836 -0.016244978 0.8671701 0.40539113
0.12654427 0.5865818 0.38449496 0.27530938 0.45301062 0.7779111 -0.4334663 0.3527261

features.8.bias f4 [128]
00000000: bf56 6f3f 7c74 e0be ce25 bebf df14 a5bf
00000010: f970 0040 d0a3 88bf c8b4 89bf 8152 afbf
00000020: 3284 e4be aeef 18be ebe3 21bf 4bc7 703d
00000030: 8698 98bf d517 823f bbcc 9b3f ccc6 b13f
00000040: bbe7 d1bf 3e56 e9bd 4380 02bf 6a90 883e
00000050: 1c5a 39bf 33ac 10bf 5039 da3d bf2b 923e
00000060: 0e62 a0bf 8727 413e 7e1d 923d 36d5 8ebe
00000070: bf58 913f bbf9 ccbf 9cd4 bbbf c3f6 3e3f
00000080: 55c3 39be 4120 6f3f 22d0 7bbf c36c 31bf
00000090: 3a8e d03e 5eee 92be 02d0 08c0 6830 813f
000000a0: c15d d5bd df75 96bf e81e 67bf d1a8 39bf
000000b0: e2b4 1a3f f6e7 97bf e657 183f 9d9f b83e
000000c0: fd63 82bf 56d9 b0be 8e64 97bf 2122 13bf
000000d0: d704 76bf 819c 5e3f 7269 243e fea4 b53e
000000e0: fe7c 90bf bf8b a2be a7a1 a63e 5ad8 bbbe
000000f0: 856d 9abe 0bd3 eb3e a4f4 febe 9160 e9bf
00000100: 29cd a5bf 6c7b 54bf 4b08 323f 6e65 f83e
00000110: fbdb 83bf 17b7 ebbd b2e2 433f 018c 8b3f
00000120: f3af 2e3f 9e64 23be 1045 08bf ea7a ce3e
00000130: 79e7 69bf fbf3 3fbf 7312 d63e 226c a9bf
00000140: 55ba 653f 9fc0 ccbf 3a75 e6be 5c58 09bf
00000150: 79b5 4ebf a89e 83bf 63c9 fabf f056 0f3d
00000160: 6c1a 24bf 0907 adbf 6e3d 043d 6c17 adbe
00000170: fb4b 213f 3872 07c0 dfea 2c3e a828 efbf
00000180: 65a4 df3e a9d9 6a3e 27cf fa3e ed14 83bf
00000190: c87b 563e 4f63 8b3f b0b4 ca3e d06e 0cbf
000001a0: 6ff7 a1bf 4b43 4cbf 1428 bebf 045a 323d
000001b0: 4fb5 c4bf 6ddd 9cbe f282 2dbf cc5e 07bf
000001c0: 3f94 af3d 72ea f7bf 17bb 623e 90bb a5bf
000001d0: b7ff dfbe 5363 f23e df08 95be fe62 45bf
000001e0: 4a7a 9dbf ab53 013f da99 adbe f7ee f8be
000001f0: faf1 383f 43a3 a8bf 0301 31bf 7037 15bf
0.9349174 -0.4383887 -1.4855287 -1.2896994 2.0068953 -1.0674992 -1.0758295 -1.3697053
-0.44632107 -0.1493518 -0.632384 0.05878381 -1.1921546 1.0163523 1.2171854 1.3888793
-1.6398844 -0.113934025 -0.5097696 0.2667268 -0.7240312 -0.56512755 0.10655463 0.28549
-1.2529924 0.18862735 0.071345314 -0.27897042 1.1355208 -1.6013712 -1.4674258 0.7459528
-0.1814092 0.9340859 -0.9836446 -0.6930658 0.4073351 -0.28697485 -2.1376958 1.0092897
-0.10418273 -1.1754721 -0.90281534 -0.7252322 0.60432255 -1.1867664 0.5950912 0.36059275
-1.0186764 -0.34540814 -1.1827562 -0.5747395 -0.96101135 0.86957556 0.16055849 0.35477442
-1.1288145 -0.31747243 0.32545206 -0.366885 -0.30161682 0.4605945 -0.4979602 -1.8232595
-1.2953235 -0.83000827 0.69543904 0.48514885 -1.0301508 -0.11509531 0.76517785 1.0902101
0.6823723 -0.15956351 -0.5323038 0.4032815 -0.91368824 -0.7498166 0.4181095 -1.3236125
0.89737445 -1.5996283 -0.45011312 -0.5365045 -0.80745655 -1.0282793 -1.9592708 0.03499502
-0.64102817 -1.3517772 0.032285146 -0.33806932 0.6300656 -2.1163464 0.16886471 -1.8684282
0.4368011 0.22934593 0.4898617 -1.0240761 0.20945656 1.0889682 0.3959098 -0.54856586
-1.2653636 -0.7979018 -1.4855981 0.043542877 -1.5367831 -0.30637684 -0.6777793 -0.52879024
0.085731976 -1.9368422 0.22141682 -1.2947865 -0.43749782 0.47341403 -0.2910833 -0.77104175
-1.2302945 0.5051829 -0.33906442 -0.48619816 0.72244227 -1.3174824 -0.6914217 -0.58287716

classifier.3.bias f4 [12]
00000000: 53ca 123d bb99 003e 109f 243b b462 21bd
00000010: 0814 0a3e c4f9 953d b3f0 aebc c5bd 473c
00000020: 9fa0 8ebc 9262 e4bd 700e 033d 3081 2a3d
0.035837483 0.12558644 0.0025119223 -0.03940077 0.13484204 0.0732303 -0.021355009 0.012191241
-0.017410574 -0.11151613 0.03199619 0.04162711

features.4.weight f4 [64, 32, 3, 3]
00000000: 4f30 fe3d fd4a b13c ac92 f3bd 073d 0c3e
00000010: a8ae 98bd 9046 35be 9013 c33b f683 58bd
00000020: ded2 2cbe 8a66 b33b f655 423d 9893 d3bc
00000030: 1771 f63d fd51 25bc 7377 303d ae1a bb3d
00000040: 6f31 e03c 9829 0fbd e511 d5bd 15c5 01bd
00000050: 834e 2bbd f434 c6bd 26ae 123d 0204 aebb
00000060: 499b ef3c fbb2 0abe a54b e6bd 90b6 2bbc
00000070: 97c1 c83d ed86 3dbd e754 07bd 6aed 433d
00000080: e761 d2bd c62f 8e3c ca52 83bb aa97 96bd
00000090: 7fcc 033e 08ec 2c3e b835 c73c 12e9 2abd
000000a0: ac69 88bd 6938 1fbd 6f44 e13c 8418 5fbd
000000b0: 1af8 01bd 4c29 22be b902 6fbd c244 9d3d
000000c0: a828 64bc 86ff dd3d 1ba4 2e3e 869a 103b
000000d0: 010e 9dbc 659e a63d 1c9b 2a3e 4176 bb3d
000000e0: ae26 4dbd aa8d f03d 1d9b 073d f57d 6bbd
000000f0: 0616 583c 1147 e63d 5337 d4bc 066f 9b3d
00000100: 6fac 90bc c1b1 3cbc 3632 433d 3084 963d
00000110: 038c f83c a956 ab3d 7d70 f23d 10b7 2e3d
00000120: e3f1 e2bc 8b36 1abd acf3 1fba 5917 0d3d
00000130: f6eb 8d3d 3fb8 2bbd 1708 213d 7ebd 66bc
00000140: f9f0 f53c 4336 873c 6ad3 6b3d aaf0 38bc
00000150: de4a 23bd 32d7 a63c 5cbc 773d 33fd 3dbc
00000160: c874 c63c f4c1 a83d fe6e e2bd 1d3b 1e3d
00000170: e801 0cbe 3224 14bd 2c14 2fbd d8e2 4ebd
00000180: ffaf 633c 3a29 75bc f465 c6bd 869b 793d
00000190: d70a f53d 7cda 5ebd 633d 48bc 7d54 173d
000001a0: a076 afbd 8468 d1bd a427 b4bd 2a94 08be
000001b0: 28dd 66bd 4dbe cfbd 9772 d7bd c0e1 cf3d
000001c0: fc3f cfbc 1a67 153c 0c3f f8bc 1a69 383d
000001d0: a6c1 2ebd 5926 5dbd 208c e1bd 9100 d43d
000001e0: 6652 1fbc 024a cfbc eddb 30bd 872e 88bd
000001f0: f5c4 b2bc ce8d 653c fbcd f6bd 0e1a 9abd
00000200: 52be eebd 5ae6 6ebe 2992 04bc a807 cfbd
00000210: f02d 61be d654 e6bd 02d6 89bc 1186 b43c
00000220: 2342 56bd bb4d 67bd 581b 7f3d 1245 453d
00000230: caf7 bbbd 97e7 9d3c 9137 1abd 8906 f6bd
00000240: b8db d7bd 76e1 15bd 72ad 183d 46a8 8dbd
00000250: 38da 6f3b 1ade 31bc bc66 b93c a677 c8bd
00000260: 7adf bb3c aed8 1dbd 3097 68bd b844 4f3d
00000270: b258 93bd 202f e23b 55c7 9c3c e00b efbd
00000280: ba07 483d 8f19 ed3c 4a98 c8bd e90f 093d
00000290: 7bd3 1ebe 0285 03bd 6406 ebbc 0e32 eebd
000002a0: e724 82bd 877f 10be 8113 82bd 308c 46bc
000002b0: b137 4ebc c178 8f3a 1c33 ee3d a3fc 0dbd
000002c0: d08f fcbc 2d52 083d fe6b 883d 21bd e2bc
000002d0: 3795 e23d cc03 a23d bdc4 f7bd 87bd 883d
000002e0: 40cf efbc 3c0d 6bbb 6bef 113d 2fd3 c8bd
000002f0: adf5 b0bd 1e7e 7fbd a11f 5fbd 1d86 9cbc
00000300: beac a4bc a1b2 ab3c 5eea 803b af49 16bd
00000310: f604 e33c 4296 663d d066 0a3e 6b6b d53c
00000320: e52d 253d 9069 3e3d ad28 7c3d 32e8 c53d
00000330: e09a bf3c b53a 6fbc 15f1 1fbd 7ad0 d63d
00000340: f457 c1bd 8f5b bb3d cb3d 153c e73f d5bc
00000350: 4da9 ec3d bceb 873d 7f16 c33c 502a 243d
00000360: 4335 913d 394e efbc 654a b6bd f3c4 c03c
00000370: d7cc 1dbd 91ca f7bc 8866 76bd 68f8 15bd
00000380: 4c70 063d 3c77 e2bd 2af8 32bd 961f 92bc
00000390: bf33 f2bd 3023 8bbd d36b a93c 4dcd 473d
000003a0: 65cd 8f3b 346a 6abd a841 b7bd 5514 25bd
000003b0: c8d0 893d 3cc8 fbbd db55 323c 5da9 003d
000003c0: 9a54 a3bd 7dd0 9f3c f070 4c3d 34cb 87bd
000003d0: 505c 283c dafc 0a3d 5f54 6b3d e3f6 2f3d
000003e0: e89e dd3c c650 043e 77bd 0dbd 94f2 e2bc
000003f0: cd3b f83d 9efd 563c b2f6 e13d 3ad2 4a3d
0.12411558 0.021642203 -0.1189321 0.13695155 -0.07455188 -0.17702699 0.0059532598 -0.052860223
-0.16877314 0.00547487 0.04744526 -0.025827214 0.12033289 -0.010090348 0.043082666 0.09135948
0.027367322 -0.034951776 -0.10403804 -0.031682093 -0.04182292 -0.09678069 0.035810612 -0.0053105364
0.02924885 -0.13544838 -0.11244897 -0.010480538 0.09802549 -0.046271253 -0.033039954 0.047833838
-0.1027258 0.017356765 -0.004007672 -0.073531464 0.12870978 0.16886914 0.024317607 -0.04172618
-0.0666078 -0.038872156 0.027498452 -0.05446674 -0.03173075 -0.15836066 -0.058352206 0.0767913
-0.013925709 0.10839753 0.17054789 0.002206476 -0.019171717 0.0813568 0.16660732 0.091534145
-0.050085716 0.1174577 0.033106912 -0.05749317 0.013188845 0.112440236 -0.025905287 0.075895354
-0.017660348 -0.011516989 0.047655307 0.073494315 0.0303402 0.083661385 0.11837862 0.04265505
-0.027703231 -0.037649672 -0.00061016786 0.034446094 0.069297716 -0.041923758 0.039314356 -0.014083264
0.030022131 0.016505366 0.057574667 -0.0112878475 -0.03986632 0.020366285 0.060482368 -0.011596012
0.024225608 0.082401186 -0.11056326 0.038630594 -0.13672602 -0.03616733 -0.042743847 -0.050509304
0.013896941 -0.014963442 -0.09687415 0.060939334 0.11964958 -0.05440758 -0.012221667 0.03694581
-0.08567548 -0.10225013 -0.08796623 -0.1333777 -0.056363255 -0.10143719 -0.10519903 0.1015048
-0.025299065 0.00911882 -0.0303035 0.045022108 -0.042665146 -0.05399165 -0.11013055 0.103516705
-0.009724235 -0.025303844 -0.043178488 -0.066494994 -0.021822432 0.01401086 -0.120510064 -0.07524501
-0.116573945 -0.2333006 -0.008091488 -0.10108882 -0.2199018 -0.1124665 -0.01682568 0.022036584
-0.052309167 -0.056470614 0.062281936 0.048161574 -0.091781214 0.01927547 -0.03765065 -0.12012965
-0.10539955 -0.03659197 0.037274785 -0.06916861 0.0036598574 -0.010856176 0.022631995 -0.09788446
0.02293371 -0.03853672 -0.05678481 0.050602645 -0.07194652 0.0069025904 0.019138018 -0.11672187
0.048835494 0.028942851 -0.09794672 0.03346244 -0.15510361 -0.032109268 -0.02868957 -0.11630641
-0.06354695 -0.14111148 -0.06351376 -0.012118384 -0.01258652 0.0010946022 0.11630842 -0.03466476
-0.030830294 0.033281494 0.06661223 -0.027678074 0.11063617 0.079108804 -0.12098072 0.066767745
-0.02927363 -0.0035866043 0.035628717 -0.09805905 -0.08640609 -0.062376134 -0.054473523 -0.019106919
-0.020101901 0.0209592 0.0039341887 -0.036691364 0.027712326 0.05629564 0.13515782 0.026052197
0.04032697 0.04648739 0.06156223 0.09663428 0.02338928 -0.014601399 -0.039048273 0.104889825
-0.09440604 0.09148323 0.009108971 -0.026031448 0.11555729 0.0663676 0.023814438 0.040079415
0.07090237 -0.029212104 -0.089009084 0.023531413 -0.03852543 -0.030247958 -0.060156375 -0.03661385
0.03282194 -0.110578984 -0.0436937 -0.017837327 -0.11826276 -0.06793821 0.020681297 0.048779774
0.0043884986 -0.05723019 -0.0894807 -0.040302593 0.06729275 -0.12294051 0.010884727 0.031411517
-0.07975121 0.019508595 0.049912393 -0.06630555 0.010275915 0.033932544 0.05745351 0.04296006
0.027053311 0.12921438 -0.034604516 -0.02770356 0.12120781 0.0131219905 0.110333815 0.049516894

features.8.weight f4 [128, 64, 3, 3]
00000000: 78a2 67be b7bd 8fbd 40c7 41bd d904 173d
00000010: a4a2 3abe 7498 52bd f36c e33d abf7 aebe
00000020: b172 05be ec1e 84be 91d7 e43c 3360 c73e
00000030: 3cdc afbd 733a 2fbd 5062 c4bd 7c8d 3e3e
00000040: 2181 713d d57d 1a3c 7bf1 093e 2313 363e
00000050: 27f6 623e 4d3d cb3b a679 693c a599 693e
00000060: 7be9 453e 91ed c53c 1ede 713e 28b7 e93c
00000070: 5810 0d3e 265f 2a3e 8055 12be b1cf 7c3d
00000080: e1f4 b4bc 62d0 35be 4f94 5ebd 1d8e 58bd
00000090: 84a5 b2bd 47fb 8dbd 731d 5cbe 9c1b 6a3c
000000a0: 8d96 bfbc 5d98 26be 09b6 09bd 9923 d0bc
000000b0: 2a71 febd 7712 e1bd dce2 bf3d 2f7e ed3b
000000c0: 5555 88be 5bff 913c b2bd 053c 290d 90bc
000000d0: bb8e 14bd 65d3 c43d 55b3 7bbe 23f1 28be
000000e0: 8b37 6f3d d02d 15be 884f 16be 89a2 b0bd
000000f0: 1dc8 22be 70fb 9d3c c860 d1bd db23 3b3d
00000100: ce2b 8bbc f272 68bd 72f9 903d f46b 123e
00000110: 7eef 3c3e 07df bebd 6ca4 1abe 0882 303e
00000120: 3b75 563c 72bc 0a3d a445 e83c e2ae 99ba
00000130: f1c0 1ebe 041c ec3d 5673 d33d 1b40 66bc
00000140: b636 a93d 8d9c 1ebe 02d9 45be 03ab f9bc
00000150: 3453 b6bd 76fe ae3d 45de e3bd 0284 c63d
00000160: 3234 893c 1e80 4abe 927f 153d d667 d7bd
00000170: 75df 64be f0d3 93be fd18 acbe 56c6 c4bd
00000180: b5a2 133e f014 9fbd a4c1 aebe 29d8 ae3c
00000190: 9913 96bd 04d0 a4be 2569 ebbd 98da 69be
000001a0: 61bb 97be e719 31be 4acc 33be 7912 2dbe
000001b0: 69eb 663f d875 353f b69e c03e 4dec 233f
000001c0: 2a86 443f 58e5 dc3e 778b b63e e009 0b3f
000001d0: 331a 1d3f 6c11 703d 506b 393d 657e 433e
000001e0: d3b8 38be 175c 2bbd bd80 d23d 3ff8 c13d
000001f0: d502 5c3c bf81 773d e462 753c 274d f1bd
00000200: 0058 203d 11db fb3d 4c81 38be 1641 58bd
00000210: 13ea c0bd 9cbc f0bd 8fa7 8bbd 8f6a b13d
00000220: 8873 5b3e 819f a1bd f393 a83e 82de b43c
00000230: a11a 7ebd e4c6 d13d b026 9e3e a420 7b3d
00000240: aa90 83bd 2d75 24be c493 083e 5af8 23be
00000250: 4fec 00bc 0865 5e3d c2c4 47be ba56 63be
00000260: 45fd 67be 48dd 513d 1ea4 1fbd a897 91be
00000270: 12f1 bb3d afc1 80be dbdc 87be 21bd 553d
00000280: b7cb 50be b1a4 97be 140e 72be fea6 ffbe
00000290: 5b14 8fbe 7846 0bbe 468b 05bf 162c a6be
000002a0: 62cf 603d 241e afbe 3a60 03bf 13b0 873e
000002b0: 39a4 0c3e 7a54 ae3e 9cb8 623e 2bc7 1c3d
000002c0: b170 073e 12eb a83e 797f 023e 1239 4b3e
000002d0: dca7 6abe a797 99be 71e4 49be 7b58 64be
000002e0: 07e2 4dbe 2f58 8ebe ed97 81bc 995f 9ebd
000002f0: 2fde 71be a102 c9be 84f5 1abe 6d9a d23d
00000300: 93f9 06be 8e0b afbd d0fe 05bd 50a5 27be
00000310: f84a 693d f451 bcbd 048f 7e3e 3aa6 953d
00000320: 41c8 a73c 47a0 e93c 63ba c0bd dc01 f53d
00000330: e130 92bd f381 49be b926 db3d 21c9 a83c
00000340: a55e 31be a643 a5bd 39b2 0ebd 3cae df3c
00000350: 017a a8bd 7124 1fbe b8ee c1bd e243 46bd
00000360: 0ec6 733e 77ff 7d3d 473b 383c 3ae5 113e
00000370: 5465 923e f2fd 973d 6732 733e 2d85 803e
00000380: de0e 2dbd 2a2e 75bd aa83 233e 1658 883e
00000390: 6b39 0e3d 3441 443e fb3f c43d aa7a 113e
000003a0: be01 ddbc f73c 653c dff6 91be f4bb 9e3d
000003b0: 1b79 14bd aaf4 2fbe 7ffc abbe 510a 6b3a
000003c0: 58bb 83be 2ec6 66be 5c20 3abe 7ecd 5fbd
000003d0: 17c4 033d 0b46 573e d551 e93d 1f9a 323e
000003e0: 3e5a e03d a1d6 5b3c affc 7e3d b520 883e
000003f0: 0a7d 35bd 8cf6 d43d cd0b 713d a3ab e73c
-0.2262057 -0.07018607 -0.04730916 0.036869857 -0.18226105 -0.051414922 0.11104765 -0.3417333
-0.13032033 -0.25804842 0.027934821 0.38940582 -0.08586928 -0.04278035 -0.09589064 0.1860866
0.058961038 0.009429415 0.13471024 0.17780738 0.22164212 0.006202376 0.014250195 0.22812517
0.19327347 0.024161132 0.23619887 0.028529719 0.13775766 0.16637859 -0.14290428 0.061721507
-0.022089424 -0.17755273 -0.054340657 -0.052869905 -0.08722976 -0.06932693 -0.21495609 0.014288809
-0.023387218 -0.1626906 -0.033620868 -0.0254076 -0.12423928 -0.1098985 0.09369442 0.0072477083
-0.26627603 0.017821958 0.008162903 -0.0175844 -0.03626893 0.09610633 -0.24580128 -0.16498236
0.05840258 -0.14568257 -0.14678776 -0.08624751 -0.1589665 0.019284934 -0.10223538 0.04568849
-0.016988661 -0.056750245 0.07078828 0.14298993 0.18450734 -0.09319883 -0.15101784 0.17237103
0.013089473 0.03387112 0.02835352 -0.0011725093 -0.15503289 0.11528781 0.10324733 -0.01405337
0.082623884 -0.15489407 -0.19321063 -0.030477053 -0.089025885 0.08544628 -0.11126379 0.09693147
0.016748521 -0.19775435 0.036498614 -0.10517852 -0.22350867 -0.28872633 -0.33612815 -0.09608142
0.14417537 -0.077676654 -0.3413211 0.021343308 -0.07327957 -0.32189953 -0.11494664 -0.22837293
-0.29635146 -0.17295037 -0.17558399 -0.16901578 0.9020296 0.7088294 0.37621087 0.6403244
0.7676722 0.43143725 0.35653278 0.54311943 0.613681 0.058610365 0.045268357 0.19091184
-0.18039255 -0.04183587 0.10278461 0.09471177 0.01342841 0.06042647 0.014977191 -0.11782294
0.039146423 0.12297643 -0.18018073 -0.052796446 -0.09419646 -0.117547244 -0.06819069 0.086629026
0.2143079 -0.07891751 0.32925376 0.022078756 -0.062037114 0.102430135 0.3088889 0.061310425
-0.06424077 -0.16060324 0.13337618 -0.16012707 -0.00786884 0.05429557 -0.19508651 -0.22201052
-0.22655208 0.05123642 -0.038974874 -0.28436017 0.0917684 -0.2514777 -0.26535687 0.05218232
-0.20390211 -0.29617837 -0.23638183 -0.49932092 -0.27945217 -0.136011 -0.5216564 -0.3245551
0.054885276 -0.34202683 -0.51318705 0.2650152 0.13734521 0.34048826 0.22140735 0.03827588
0.13226582 0.32991844 0.1274394 0.1984599 -0.22915596 -0.29998514 -0.1971605 -0.22299378
-0.20105754 -0.27801654 -0.015819514 -0.077330776 -0.23619913 -0.39259818 -0.1513272 0.10283361
-0.13181143 -0.08547126 -0.03271371 -0.16371655 0.05695626 -0.09195319 0.24859244 0.07307096
0.02048123 0.028518809 -0.094105504 0.11963245 -0.07138229 -0.19678478 0.10700745 0.020603718
-0.1732126 -0.080695435 -0.034837935 0.027304761 -0.082263954 -0.15541245 -0.0946936 -0.04840458
0.2380602 0.06201121 0.011244602 0.14247599 0.28592932 0.07421483 0.23749696 0.25101605
-0.042250507 -0.05985848 0.15968195 0.26629704 0.034722727 0.19165498 0.09582516 0.14206949
-0.02697837 0.013991586 -0.2850866 0.07750693 -0.036248308 -0.17183176 -0.33591077 0.0008966076
-0.2572887 -0.22536537 -0.18176407 -0.054639332 0.032169428 0.21022813 0.11392561 0.17441605
0.10954712 0.013417871 0.062252697 0.26587453 -0.0443087 0.103985876 0.058849145 0.028280085

classifier.3.weight f4 [12, 128]
00000000: 55ad 3d3d 2188 a83d 5cef 55bd 9be7 98bd
00000010: 434a 9e3d f930 ad3d 80a2 1cbe 9673 963c
00000020: 1822 3c3d a5d7 f03c 7b81 aebd 6978 32be
00000030: 28cb 58bd 9433 bfbd 434c e9bd 55b0 913d
00000040: fb2c d9bd 1f38 443c d9de 0eba 85ff 73bd
00000050: b35b d6bc cd16 ef3d 0c1e eb3d 94b9 703d
00000060: 5074 7f3d a65e 03bd 0d67 88bd e3b7 ffbb
00000070: 31f0 84bd c7fd 23be c65a a73d 9dbe b93d
00000080: 7878 4b3d 7544 d7bd 8b10 2cbd 869a 683d
00000090: 6311 dfbd 74fa 8b3d 60f3 d73b 91fe 8dbd
000000a0: 3eba d53d 49e3 5e3d d94a 933d b4d4 b23d
000000b0: 9d1b 8c3d da3f c73d 518d 55bd df6c 5a3d
000000c0: 45ef d6bd 3180 05be ccb6 4d3d 8d40 aebc
000000d0: 3f6d abbd 6e43 04be 6c4f f83d fe3d bd3d
000000e0: a9ee 15bd 1e85 bc3d c5e3 663d e88a e43c
000000f0: 371b 2cbd c6cc 7dbd 17e3 263d 6aee 61bd
00000100: dad7 043d ea67 8d3d afa7 6b3d 35e9 8f3c
00000110: 8d76 a13d 42dc e93d dd34 9d3d a442 b0bd
00000120: 8fd2 d13d 98c9 353d 85a3 d4bc c142 d8bc
00000130: acd1 143b 4657 803d 1405 c43d 3300 b13b
00000140: 16b4 3abc 9996 47bc 64be 703d 6161 023d
00000150: fda1 a6bd d6fc c83c 8745 3a3d 7346 0dbe
00000160: 4d66 c73d 9a7b 18bc 6caf ccbd 3c89 bd3d
00000170: 43d5 4ebd daeb b0bd bc8e 913c d313 003e
00000180: edbf 053d c666 9c3c 181c b0bc 009c 2e3d
00000190: 17d4 e03c 2839 81bb 022a 62bd 3fe9 3abe
000001a0: 171c e7bd 4109 d5bc 4dfb 093d 6edf a53d
000001b0: 57dc a4bd 728b 1bbd 284d 693d 077e eb3c
000001c0: 3c58 e23c 8bbe 103b f594 66bd 2384 d4bd
000001d0: 245d 983d 6ff1 9b3d e9bf 9c3c 0457 1f3c
000001e0: f846 5cbe b1fa 9e3d 9b77 ef3c 5f3a 0b3d
000001f0: b43e 183d 3fd7 bdbd 7f5c abbc 3d71 05bd
00000200: 5229 543d dd32 24bd 831d e3bd 442c ae3c
00000210: 55f3 153e c009 fdbd 4850 2d3e 66d5 4fbe
00000220: fad4 2b3d 2410 04be 42b0 1e3e eecf 413e
00000230: aaa7 89bd b97b 0d3e 7df0 153e aa46 a63d
00000240: 22d9 24bd b4ff e9bc 9e8f a73d e728 2e3e
00000250: 9a71 6cbd 97e5 86bd 0b16 81bd 5bb9 d33c
00000260: 033a 31be ae6f ab3c 81f8 de3c 9fc2 26be
00000270: 5889 2a3e ab58 653d ad59 0ebe 9bc1 153e
00000280: 0d8d e7bd 7282 f93d 091d 36be 21c2 0fbe
00000290: 3aba dd3d 9797 92bd d8dc 26be 8e90 0f3e
000002a0: 6a70 61be 53e6 68be 9597 68bc a99f 7dbe
000002b0: 863f f63c 4a3f 21be a60b 3a3e 5f9d 2c3e
000002c0: ccb4 fabd a4f8 303e 25b8 48bd 6eda 7d3d
000002d0: 8883 e8bd cc7a 313e d8e4 983d f4d5 81bc
000002e0: 0267 f9bd 7946 fabd 850d 27be 4b72 76be
000002f0: e70b 75bd 31ba 1c3e 9376 6d3d a0b1 5fbe
00000300: 80c0 873b 095f 3ebe 6952 bd3d 3519 103e
00000310: 9407 b7bd 91b9 f4bc e833 7f3d 0070 6e3d
00000320: dd0d d1bd d5e5 a63c 08bf 393d e311 e33d
00000330: 41f9 1bbe 6a1b 62be 45a0 d8bd 26af 40be
00000340: bea2 1f3e 5ae2 523d 712c bebd 2a58 4cbe
00000350: ee47 d9bc f9d5 07be 67bc 08be 6ccb fd3d
00000360: c321 a4bd c3cf adbc 23d4 1f3e 1190 00be
00000370: 65df 423e 9cf1 1dbe 13b9 0a3d f975 59be
00000380: b20e 243e f20f bfbd e3df 073e e9e2 7fbd
00000390: 5b97 f53c 3376 6c3c 5d65 c93d 8d98 883d
000003a0: 5f8c 0a3e 49ba 37be b300 1ebe 85b5 9c3d
000003b0: c40d 1e3d 732e 113d 3064 073d 58f1 42be
000003c0: a6e1 86bb f2a3 2ebe 42cf 88bc 2697 633d
000003d0: 673b 4dbe c2ed d33d 89e7 29be 3295 373d
000003e0: 3e3b 103e a32d 0abd d0a4 d4bb 8cec 58be
000003f0: 9ce7 d13d ce61 173d bf87 3fbd e7cf 82be
0.04630788 0.082290895 -0.052230224 -0.0746605 0.07729008 0.084566064 -0.15296364 0.018365663
0.04593095 0.029399702 -0.0852079 -0.17428745 -0.05292812 -0.093360096 -0.11391499 0.07113711
-0.106042825 0.011976271 -0.0005450077 -0.059569854 -0.026166772 0.11674271 0.1148034 0.05877073
0.062366784 -0.032072686 -0.066602804 -0.0078039034 -0.064911254 -0.16014777 0.081716105 0.0906956
0.049675435 -0.10511104 -0.042007964 0.05678799 -0.10891988 0.068348795 0.006590292 -0.0693332
0.104359135 0.054415975 0.071920104 0.08731976 0.06841204 0.097289756 -0.052136723 0.053326484
-0.10494856 -0.13037182 0.050223157 -0.021271015 -0.083704464 -0.12916347 0.121245235 0.0924034
-0.036604557 0.092050776 0.05636956 0.027898267 -0.04201814 -0.061962865 0.040743914 -0.05515901
0.032432415 0.06904586 0.057532962 0.017567256 0.0788394 0.11418964 0.076760985 -0.08606461
0.10245239 0.044381708 -0.025956878 -0.026399018 0.0022707982 0.06266646 0.09571281 0.005401635
-0.011395475 -0.012181901 0.05877532 0.03183115 -0.081363656 0.024534624 0.045476463 -0.13796405
0.09736309 -0.009306813 -0.099943966 0.09254691 -0.05049635 -0.08638735 0.017768256 0.12507562
0.032653738 0.019091975 -0.021497771 0.042629242 0.027444882 -0.003943581 -0.055215843 -0.18253039
-0.112846546 -0.02600539 0.033686925 0.080992565 -0.08049839 -0.037974782 0.056958348 0.028746618
0.027629964 0.0022086229 -0.0562944 -0.103767656 0.0743964 0.07614409 0.019134479 0.009725336
-0.21511447 0.07762659 0.029231837 0.033991214 0.037169173 -0.092695706 -0.020918129 -0.032578696
0.05179722 -0.04008757 -0.11089613 0.021261342 0.14643605 -0.12355375 0.16925156 -0.20296249
0.041951157 -0.12896782 0.15496925 0.18926975 -0.067214325 0.13816728 0.1464252 0.08118947
-0.040246136 -0.028564312 0.0818169 0.1700779 -0.057725526 -0.065867595 -0.063030325 0.02584522
-0.17307286 0.020927276 0.027218105 -0.1628518 0.16653955 0.055992763 -0.13901396 0.14624636
-0.113062 0.121830836 -0.17784514 -0.14038898 0.108265355 -0.0715782 -0.16295183 0.14019987
-0.22015539 -0.22744112 -0.014196296 -0.24767937 0.030059587 -0.15746799 0.18168506 0.16856907
-0.122415155 0.17282349 -0.04900374 0.06197589 -0.113532126 0.17332 0.074655235 -0.015849091
-0.1217785 -0.12220473 -0.16313751 -0.24067037 -0.059825804 0.15305401 0.05797441 -0.21845102
0.004142821 -0.1859094 0.09244234 0.14072116 -0.08936992 -0.029873641 0.06230536 0.05821228
-0.10207722 0.020373264 0.045348197 0.11087396 -0.15231802 -0.2208077 -0.10577444 -0.18816814
0.15589425 0.051485397 -0.0928582 -0.19955507 -0.026523557 -0.13265218 -0.1335312 0.12392315
-0.08014252 -0.021217233 0.15608267 -0.12554957 0.19030531 -0.15424198 0.033867907 -0.21236409
0.16021231 -0.09329213 0.13269 -0.062472258 0.029979398 0.014432478 0.09833787 0.06669722
0.1353011 -0.17942156 -0.15429954 0.076518096 0.038587347 0.035444688 0.03305453 -0.19037378
-0.004116255 -0.17054728 -0.01670039 0.05556407 -0.20042191 0.10348083 -0.1659223 0.044820018
0.14085099 -0.03373493 -0.0064893737 -0.21183985 0.10249254 0.03695851 -0.046760317 -0.25549242
