model/greek_cnn.pth (torch, 388504 bytes, 20 tensors)

features.0.weight f4 [32, 1, 3, 3]
-0.097082 0.2961982 -0.22857274 -0.33319977 -0.30622804 -0.25090674 -0.27035117 0.312758
0.10397706 0.0673961 0.1410248 0.14520803 0.092741586 0.25755802 -0.058321692 0.078329846
0.16931084 -0.11605343 0.072016485 0.13457233 -0.03963339 -0.0934346 -0.09693961 0.25031915
0.30643967 -0.19498308 -0.05344428 -0.28544798 -0.24420595 0.04317215 0.23856787 0.2295775
0.004756862 -0.061779227 -0.04825459 -0.05947076 -0.29253307 -0.28318724 -0.31231585 0.22784321
0.12136932 0.1294213 -0.093440235 0.23657413 -0.28218344 0.13797843 -0.14545527 -0.16820805
0.2792969 0.14630853 -0.26908627 -0.18581127 0.010023338 -0.25115573 0.084800236 0.0055227363
-0.27950853 0.0102542015 -0.40392506 0.0039793607 -0.31934893 -0.0013454922 0.2789948 -0.13648045
-0.20815471 0.2768468 -0.24693385 0.027007751 -0.25564727 -0.2207426 0.20297696 0.22341691
0.17699079 -0.32484615 -0.16932426 0.023738908 -0.2258946 0.16436724 0.098199874 -0.07708151
-0.2959156 0.18277504 0.013435225 0.07712441 -0.31172365 -0.1290335 -0.15866278 0.19692418
-0.08499994 -0.11996604 0.27772686 0.3056546 0.09242223 0.29145795 -0.37309447 -0.29230034
-0.31539083 -0.21002182 0.25500733 -0.10300904 -0.10028409 -0.22493118 -0.23804154 -0.21944076
-0.06999632 0.20331128 0.327079 -0.03412271 -0.3745486 -0.06172649 0.3116514 -0.15282138
0.06642534 0.30244732 0.12112012 -0.078677334 -0.19016536 0.07403618 0.34838837 -0.23172067
0.08656742 0.22534288 0.034166012 0.158582 0.3491875 0.074400306 0.2442851 0.22335413
-0.06383007 -0.27626258 0.02509253 -0.033015497 -0.18187921 -0.060277354 -0.11111297 0.11927608
0.29291254 0.0062974626 0.16496766 -0.23965377 -0.23971508 -0.3645305 0.1406118 -0.3016926
-0.1705611 -0.06141807 0.23625769 0.30811894 -0.0005114691 -0.074354716 0.25234857 -0.0144168185
0.33538955 -0.00981881 -0.0948183 -0.327419 -0.14557832 0.2675216 -0.311952 0.2731264
-0.079166576 0.22219026 0.33786222 -0.056590576 0.3025443 0.24640451 -0.12540801 0.23782113
-0.1342612 -0.16946636 -0.027589375 0.27798638 0.053217918 -0.14644614 0.16727173 -0.07964251
-0.041451465 0.048012927 -0.22676294 -0.11318813 0.1175908 -0.26836726 -0.24547689 -0.21362391
0.21236363 -0.0019354364 -0.08009621 -0.027209485 0.26219678 -0.084592015 -0.08407633 0.061976682
0.22310834 -0.14680561 0.0368625 0.20457803 -0.014191557 -0.20118552 -0.0048955884 0.18978766
0.21915534 0.21762384 -0.04880622 0.039002605 0.36169338 0.00478029 -0.04705289 0.13654761
0.24859586 -0.016013004 0.1682048 -0.2778569 0.31241646 0.2186452 0.26830125 -0.2532612
-0.1877204 -0.077944726 -0.25989097 0.14671966 -0.25396213 0.15587187 -0.120701104 0.23132977
0.22083817 -0.22974853 0.04743565 0.0023718178 -0.189486 0.047507733 -0.06440237 0.27095172
0.04988219 -0.07419102 -0.21300466 0.3683495 -0.16718839 -0.10041098 -0.006974404 0.2117024
0.14573605 -0.28297818 -0.29195377 -0.08550621 0.26345313 -0.09477316 -0.14003143 -0.10222108
0.015555706 -0.26996326 0.04557634 0.23380747 -0.32998335 0.14030908 -0.260046 -0.10354496
00000000: edd2 c6bd 4aa7 973e f90e 6abe 2999 aabe
00000010: ecc9 9cbe d976 80be 786b 8abe d121 a03e
00000020: edf1 d43d f706 8a3d ce68 103e 6ab1 143e
00000030: 4def bd3d a5de 833e bae2 6ebd 666b a03d
00000040: d25f 2d3e 6cad edbd 617d 933d 54cd 093e
00000050: 9f56 22bd a45a bfbd 4688 c6bd d529 803e
00000060: a9e5 9c3e a5a9 47be 64e8 5abd 3d26 92be
00000070: 2011 7abe 48d5 303d 234b 743e 5d16 6b3e
00000080: 73df 9b3b 370c 7dbd 9ba6 45bd 9d97 73bd
00000090: e5c6 95be ebfd 90be dde7 9fbe bb4f 693e
000000a0: 7a90 f83d 0487 043e 985d bfbd 7d40 723e
000000b0: 597a 90be 384a 0d3e 3af2 14be bb3e 2cbe
000000c0: 0100 8f3e e7d1 153e adc5 89be 4f45 3ebe
000000d0: ed38 243c 7c97 80be bfab ad3d 12f8 b43b
000000e0: be1b 8fbe 3d01 283c 44cf cebe 4c65 823b
000000f0: b481 a3be 3a5b b0ba 68d8 8e3e 88c1 0bbe
00000100: 8226 55be ddbe 8d3e 3adc 7cbe 5c3f dd3c
00000110: 33e4 82be 590a 62be 31d9 4f3e 67c7 643e
00000120: 133d 353e 3c52 a6be 5763 2dbe 1978 c23c
00000130: ea50 67be e34f 283e 041d c93d e9dc 9dbd
00000140: 4082 97be 6129 3b3e 6b1f 5c3c 67f3 9d3d
00000150: 3e9a 9fbe 5c21 04be 7f78 22be 7ea6 493e
00000160: 7314 aebd c1b0 f5bd 3732 8e3e c27e 9c3e
00000170: de47 bd3d fa39 953e 3d06 bfbe 64a8 95be
00000180: e87a a1be f60f 57be 5290 823e 67f6 d2bd
00000190: bf61 cdbd 5c54 66be 29c1 73be 14b5 60be
000001a0: 3b5a 8fbd d530 503e e676 a73e 41c4 0bbd
000001b0: d6c4 bfbe ead4 7cbd c690 9f3e 357d 1cbe
000001c0: 020a 883d 60da 9a3e d30d f83d 9521 a1bd
000001d0: b5ba 42be 48a0 973d f65f b23e 2f48 6dbe
000001e0: 424a b13d 49c0 663e a9f1 0b3d 5263 223e
000001f0: b4c8 b23e 305f 983d e025 7a3e f2b6 643e
00000200: 57b9 82bd 4a72 8dbe d98e cd3c 423b 07bd
00000210: 8b3e 3abe 63e5 76bd 328f e3bd 0447 f43d
00000220: a2f8 953e f25a ce3b 48ed 283e cc67 75be
00000230: df77 75be bea3 babe 8afc 0f3e 7477 9abe
00000240: 92a7 2ebe 8491 7bbd 89ed 713e c4c1 9d3e
00000250: 1c14 06ba 4947 98bd d533 813e 8534 6cbc
00000260: 2eb8 ab3e 13df 20bc 1930 c2bd 77a3 a7be
00000270: 7c12 15be 97f8 883e 2cb8 9fbe 39d7 8b3e
00000280: 1622 a2bd d885 633e 47fc ac3e 85cb 67bd
00000290: 16e7 9a3e 7751 7c3e f56a 00be 6287 733e
000002a0: c57b 09be 9788 2dbe 1d03 e2bc 3b54 8e3e
000002b0: 08fb 593d faf5 15be 4849 2b3e 9d1b a3bd
000002c0: 03c9 29bd 34a9 443d 8b34 68be 2ecf e7bd
000002d0: 72d3 f03d 6f67 89be 4b5e 7bbe 3ac0 5abe
000002e0: da75 593e 78ae fdba 7b09 a4bd 6de6 debc
000002f0: a83e 863e 943e adbd 3630 acbd 43db 7d3d
00000300: 8376 643e 3654 16be 22fd 163d e77c 513e
00000310: b483 68bc 9403 4ebe 2c6b a0bb b257 423e
00000320: 426a 603e c9d8 5e3e 08e9 47bd 32c1 1f3d
00000330: e02f b93e fba3 9c3b 88ba 40bd 23d3 0b3e
00000340: ea8f 7e3e b42d 83bc e13d 2c3e 4243 8ebe
00000350: 0df5 9f3e 87e4 5f3e c85e 893e 74ab 81be
00000360: c739 40be 7ca1 9fbd 6e10 85be ae3d 163e
00000370: 5307 82be e09c 1f3e 2432 f7bd b6e1 6c3e
00000380: 6723 623e 3343 6bbe e24b 423d 8070 1b3b
00000390: 9e08 42be 7897 423d 64e5 83bd 2fba 8a3e
000003a0: 4451 4c3d 76f1 97bd e51d 5abe 4e98 bc3e
000003b0: 6f33 2bbe 46a4 cdbd 8b89 e4bb 84c8 583e
000003c0: d53b 153e 84e2 90be f77a 95be e11d afbd
000003d0: 54e3 863e 6e18 c2bd 6664 0fbe 4959 d1bd
000003e0: 5cdd 7e3c a038 8abe 42ae 3a3d 3a6b 6f3e
000003f0: 94f3 a8be 2fad 0f3e c024 85be 610f d4bd

features.0.bias f4 [32]
0.008789512 -0.0021661725 0.008906681 -0.0889788 -0.012061533 -0.0007188623 -0.11143612 -0.04662418
-0.009218573 -0.017527243 0.003201851 -0.12375283 0.0025510422 0.000934303 0.102389015 -0.07053022
-0.0018835629 0.06929098 -0.0065713245 -0.0029804702 -0.001307696 0.003938383 0.00195045 -0.0012764524
0.015927337 0.036361936 -0.08075978 -0.066103086 -0.002913922 0.027159939 0.05168875 0.0022072205
00000000: e301 103c 58f6 0dbb 54ed 113c 843a b6bd
00000010: bc9d 45bc 0872 3cba 9f38 e4bd fff8 3ebd
00000020: 7f09 17bc 4b95 8fbc 25d6 513b 2072 fdbd
00000030: 632f 273b 03ec 743a 55b1 d13d 2672 90bd
00000040: e2e1 f6ba 6ee8 8d3d 4454 d7bb fe53 43bb
00000050: ff66 abba 8d0d 813b 3ea6 ff3a a34e a7ba
00000060: 0c7a 823c 41f0 143d 6265 a5bd 0e61 87bd
00000070: 80f7 3ebb 857e de3c 95b7 533d 04a7 103b

features.1.weight f4 [32]
1.0128695 0.94791204 0.94775826 0.9746519 1.025684 1.0878276 1.1029589 1.0165551
1.0591053 0.9782504 0.9446075 1.0757728 0.9761769 0.98384625 1.0522906 0.9547849
0.98548496 0.9723742 0.95846057 0.9940681 0.9774414 0.85658354 0.95743054 0.9318509
0.9577735 0.9492625 1.0127795 0.94656384 1.0443257 1.067562 1.1457385 0.87530726
00000000: b5a5 813f 5daa 723f 49a0 723f c982 793f
00000010: 9d49 833f ef3d 8b3f c22d 8d3f 7a1e 823f
00000020: c390 873f 9e6e 7a3f ccd1 713f ecb2 893f
00000030: bbe6 793f 59dd 7b3f 75b1 863f c96c 743f
00000040: be48 7c3f 84ed 783f ac5d 753f 3f7b 7e3f
00000050: 9939 7a3f 0f49 5b3f 2b1a 753f c88d 6e3f
00000060: a530 753f de02 733f c2a2 813f 0252 723f
00000070: 77ac 853f dfa5 883f 8fa7 923f 2314 603f

features.1.bias f4 [32]
-0.077217534 -0.08832427 -0.124769926 -0.089541964 -0.07015993 -0.079901725 -0.07728332 -0.0580581
-0.028354349 -0.10650055 0.004499697 -0.10055115 -0.1519229 -0.07273423 -0.0064745825 -0.025138212
-0.18560734 -0.062065274 -0.04317215 -0.15977433 -0.072780244 -0.05229087 -0.10708692 -0.09383272
-0.06764679 -0.029801948 0.015903324 -0.107847184 -0.027265828 -0.005580953 -0.12135734 -0.06819363
00000000: 3a24 9ebd 5be3 b4bd 6087 ffbd c761 b7bd
00000010: 02b0 8fbd 84a3 a3bd b846 9ebd 55ce 6dbd
00000020: 6147 e8bc f61c dabd 3272 933b c3ed cdbd
00000030: ad91 1bbe aff5 94bd bc28 d4bb a7ee cdbc
00000040: da0f 3ebe 2838 7ebd 48d5 30bd e29b 23be
00000050: cf0d 95bd f42e 56bd 6350 dbbd 5e2b c0bd
00000060: 668a 8abd 3723 f4bc b047 823c fcde dcbd
00000070: 965c dfbc 6de0 b6bb 328a f8bd 1aa9 8bbd

features.1.running_mean f4 [32]
0.44857588 -0.4429394 -0.1547919 0.018138327 0.3047621 0.25510693 0.23991615 0.14482453
0.34769815 0.1694615 -0.018393282 0.13651009 0.03600879 -0.6335293 0.23557948 0.16977873
-0.46520817 0.1864884 -0.35650536 0.030452734 0.13846962 0.005562126 -0.5296761 -0.46060276
0.09914936 0.11602677 0.11291437 0.010817503 0.43191847 0.5875101 0.3106556 -0.23890622
00000000: bdab e53e f4c8 e2be c581 1ebe d496 943c
00000010: c709 9c3e 609d 823e 94ac 753e e24c 143e
00000020: 7e05 b23e 5187 2d3e 82ad 96bc 4dc9 0b3e
00000030: f47d 133d fa2e 22bf bf3b 713e 7ada 2d3e
00000040: c42f eebe d1f6 3e3e df87 b6be 0378 f93c
00000050: fbca 0d3e 7f42 b63b da98 07bf 20d4 ebbe
00000060: d20e cb3d 719f ed3d a63f e73d e53b 313c
00000070: 6b24 dd3e 1067 163f 400e 9f3e d5a3 74be

features.1.running_var f4 [32]
0.3592645 0.34724972 0.046387494 0.031321473 0.18548839 0.14478222 0.23394212 0.10812171
0.246388 0.086443104 0.060087226 0.16346553 0.044012796 0.72709805 0.05914965 0.1467318
0.35746306 0.06873404 0.23588441 0.044320967 0.051523857 0.015120961 0.4630647 0.357529
0.048955027 0.023346882 0.07214077 0.034806926 0.31308976 0.50907266 0.1503822 0.12213425
00000000: 84f1 b73e b7ca b13e d000 3e3d f24a 003d
00000010: abf0 3d3e ca41 143e 868e 6f3e ea6e dd3d
00000020: 234d 7c3e 1509 b13d 061e 763d 8263 273e
00000030: c346 343d 1923 3a3f e746 723d dc40 163e
00000040: 6605 b73e 6fc4 8c3d af8b 713e e789 353d
00000050: ae0a 533d e8bd 773c d116 ed3e 0b0e b73e
00000060: 1185 483d f641 bf3c 8abe 933d b591 0e3d
00000070: 4d4d a03e 9652 023f cbfd 193e 8621 fa3d

features.4.weight f4 [64, 32, 3, 3]
0.07447073 0.012985562 -0.07136058 0.08217245 -0.044731956 -0.10621816 0.003572022 -0.031716723
-0.101265766 0.003284983 0.028467685 -0.015496616 0.07220107 -0.0060543213 0.025850078 0.054816704
0.016420698 -0.020971455 -0.06242398 -0.019009609 -0.025094219 -0.05806949 0.021486765 -0.003186381
0.017549636 -0.08127054 -0.06747063 -0.0062884395 0.05881639 -0.027763266 -0.01982434 0.028700834
-0.061636623 0.010414252 -0.0024046476 -0.044119697 0.0772273 0.10132336 0.014590835 -0.025036173
-0.039965425 -0.023323726 0.016499378 -0.03268065 -0.019038802 -0.095018156 -0.035011973 0.046075635
-0.00835558 0.065039724 0.10233063 0.0013239101 -0.011503243 0.048814986 0.09996625 0.054921504
-0.030051988 0.07047593 0.019864516 -0.034496542 0.0079134535 0.067465395 -0.01554346 0.045538057
-0.010596406 -0.006910322 0.028593715 0.044097405 0.018204458 0.05019776 0.071028486 0.025593504
-0.016622247 -0.022590222 -0.0003661075 0.020668041 0.041579403 -0.025154721 0.02358905 -0.008450115
0.018013613 0.009903404 0.03454544 -0.006772834 -0.023920236 0.012219998 0.036290094 -0.0069577363
0.014535634 0.04944163 -0.06633919 0.023178786 -0.082037136 -0.021700801 -0.025646783 -0.030306144
0.008338319 -0.008978232 -0.058125567 0.03656428 0.07179108 -0.032645155 -0.007333136 0.022167897
-0.051406242 -0.061351214 -0.052780718 -0.0800281 -0.03381858 -0.060863443 -0.06312059 0.06090401
-0.015179721 0.0054713935 -0.018182438 0.027013766 -0.025599563 -0.03239559 -0.06607956 0.062111177
-0.0058346493 -0.015182588 -0.025907572 -0.039897736 -0.0130937025 0.008406672 -0.07230738 -0.045147844
-0.06994566 -0.13998295 -0.0048549827 -0.060654417 -0.13194352 -0.06748115 -0.010095595 0.013222196
-0.03138608 -0.033882998 0.037369855 0.02889748 -0.05506975 0.011565496 -0.022590809 -0.07207913
-0.0632409 -0.021955589 0.022365285 -0.041501936 0.0021959553 -0.006513826 0.01357945 -0.05873177
0.013760482 -0.023122462 -0.034071516 0.03036215 -0.04316871 0.004141631 0.011483024 -0.07003442
0.029301839 0.017366033 -0.05876912 0.020077836 -0.09306389 -0.019265918 -0.017214062 -0.06978514
-0.038128875 -0.08466846 -0.038108964 -0.0072711655 -0.0075520524 0.0006567735 0.06978635 -0.020799242
-0.01849852 0.019969268 0.03996808 -0.016607152 0.06638293 0.047466163 -0.07258978 0.04006139
-0.017564503 -0.0021520024 0.021377627 -0.058836523 -0.051844615 -0.037426375 -0.03268472 -0.011464364
-0.012061365 0.012575754 0.002360557 -0.022015227 0.016627705 0.03377801 0.0810962 0.015631609
0.024196632 0.02789295 0.036938023 0.057981644 0.014033828 -0.008761002 -0.0234294 0.06293506
-0.056644674 0.054890957 0.0054654838 -0.015619159 0.06933566 0.039821297 0.014288927 0.024048096
0.04254221 -0.017527588 -0.05340644 0.014119109 -0.023115685 -0.018149111 -0.036094494 -0.021968719
0.01969353 -0.06634862 -0.026216706 -0.010702595 -0.07095897 -0.04076368 0.012409008 0.029268408
0.002633148 -0.03433875 -0.053689416 -0.024182005 0.0403764 -0.07376567 0.0065309578 0.01884726
-0.047851615 0.011705374 0.029947992 -0.039784066 0.0061656637 0.020359904 0.034472745 0.025776513
0.016232288 0.07753006 -0.020763095 -0.016622445 0.07272603 0.0078733405 0.066201515 0.029710688
00000000: 1c84 983d 65c1 543c 7f25 92bd 084a a83d
00000010: db38 37bd e888 d9bd 9618 6a3b 65e9 01bd
00000020: 6d64 cfbd df48 573b 1035 e93c 85e5 7dbc
00000030: 28de 933d 5463 c6bb 8bc3 d33c 7b87 603d
00000040: b384 863c 54cc abbc 4ab0 7fbd 0aba 9bbc
00000050: 6492 cdbc 46da 6dbd 0305 b03c 9ad2 50bb
00000060: 41c4 8f3c 2b71 a6bd 0b2e 8abd 410f cebb
00000070: 74e9 703d ca6f e3bc a766 a2bc 031e eb3c
00000080: af76 7cbd 8aa0 2a3c 4b97 1dbb dbb6 34bd
00000090: 5929 9e3d 9f82 cf3d 660e 6f3c a918 cdbc
000000a0: c9b2 23bd 6611 bfbc b429 873c 25dc 05bd
000000b0: 43f7 9bbc e198 c2bd b768 0fbd ceb9 3c3d
000000c0: d8e5 08bc 8c33 853d b992 d13d 0d87 ad3a
000000d0: 1978 3cbc 39f2 473d 1bbb cc3d 5ff5 603d
000000e0: 962f f6bc af55 903d e9ba a23c 3f4c 0dbd
000000f0: 6ea7 013c 4c2b 8a3d ffa9 7ebc 1d86 3a3d
00000100: 8c9c 2dbc fb6f e2bb 5e3d ea3c 7b9f 343d
00000110: 8421 953c 2b9c 4d3d 6277 913d 78a9 d13c
00000120: 612b 88bc 210f b9bc 1ef2 bfb9 0650 a93c
00000130: 2a4f 2a3d 4611 cebc d33d c13c 5a72 0abc
00000140: 4991 933c e341 223c 857f 0d3d a6ee ddbb
00000150: 5ff4 c3bc 6336 483c eca4 143d b9fd e3bb
00000160: de26 6e3c 4e83 4a3d d7dc 87bd 70e1 bd3c
00000170: 1603 a8bd e1c5 b1bc 3419 d2bc 9744 f8bc
00000180: 729d 083c 6f19 13bc 1315 6ebd 6dc4 153d
00000190: 3407 933d edb6 05bd ce4a f0bb 7399 b53c
000001a0: 5a8f 52bd 694b 7bbd 9830 58bd c6e5 a3bd
000001b0: 5a85 0abd f24b 79bd 5e45 81bd 7c76 793d
000001c0: 5db4 78bc 6049 b33b 56f3 94bc f94b dd3c
000001d0: 2db6 d1bc 3db1 04bd b854 87bd 4a68 7e3d
000001e0: 9630 bfbb 64c0 78bc 1e3c d4bc cf6b 23bd
000001f0: f886 56bc 23bc 093c e415 94bd f2ec 38bd
00000200: ac3f 8fbd b157 0fbe 8c16 9fbb c470 78bd
00000210: 341c 07be 8f33 8abd ff67 25bc e9a1 583c
00000220: b18e 00bd e6c8 0abd 2211 193d 68ba ec3c
00000230: d190 61bd 357d 3d3c 5c10 b9bc 399e 93bd
00000240: 7284 81bd 35dc b3bc 6737 b73c effd 29bd
00000250: 04ea 0f3b ef71 d5bb 577c 5e3c b990 70bd
00000260: a573 613c 516b bdbc 938e 0bbd 0bba f83c
00000270: acd1 30bd 85b6 873b 4b23 3c3c 356e 8fbd
00000280: 690a f03c 3643 8e3c e4b7 70bd 467a a43c
00000290: 4898 bebd 8fd3 9dbc 8104 8dbc 83eb 8ebd
000002a0: 062d 1cbd a866 adbd 2518 1cbd f542 eebb
000002b0: 3577 f7bb 532b 2c3a 25ec 8e3d 2c63 aabc
000002c0: 358a 97bc 9796 a33c 92b5 233d b90b 88bc
000002d0: c6f3 873d e16b 423d f3a9 94bd 6917 243d
000002e0: 6fe3 8fbc 9c08 0dbb 2220 af3c 91fe 70bd
000002f0: 055b 54bd 664c 19bd 6ae0 05bd 07d5 3bbc
00000300: 089d 45bc 890a 4e3c 93b3 1a3b 4759 b4bc
00000310: d336 883c d05a 0a3d c415 a63d dc0d 803c
00000320: 0438 c63c c27f e43c 534c 173d 297e 6d3d
00000330: 24ee 653c 4e8a 0fbc 03ef bfbc 19e4 803d
00000340: 3f04 68bd 57d5 603d cd17 b33b 80e7 7fbc
00000350: dbff 8d3d a81b 233d 1b1c 6a3c 8300 c53c
00000360: be40 2e3d 0496 8fbc b6c0 5abd d653 673c
00000370: 1b5d bdbc 72ad 94bc d2d7 13bd bef7 b3bc
00000380: 5354 a13c c9e1 87bd 6bc4 d6bc f059 2fbc
00000390: f052 91bd d1f7 26bd 274f 4b3c 4dc4 ef3c
000003a0: e590 2c3b caa6 0cbd 6fe9 5bbd 5719 c6bc
000003b0: b961 253d 7512 97bd a501 d63b 9265 9a3c
000003c0: 0e00 44bd e6c7 3f3c 7e55 f53c 9ef4 22bd
000003d0: 5609 ca3b d0c9 a63c 4b33 0d3d 4429 d33c
000003e0: 93f9 843c 15c8 9e3d 5e17 aabc cb2b 88bc
000003f0: 63f1 943d 2fff 003c a994 873d d463 f33c

features.4.bias f4 [64]
-1.4661786e-05 -0.000629545 0.00013523507 -0.001017307 0.00018325607 0.0006759344 -0.00014913594 0.0018104297
0.00025140127 6.839578e-05 -0.000963054 -0.003057362 0.0018904004 0.0025212322 -0.00038056707 0.0005458269
2.8178756e-05 -0.0010415021 -8.601133e-05 -0.002455217 0.00035002278 0.0037335227 0.0009370746 -0.0016012371
0.00093473087 0.000365082 -0.00012263702 0.00059042574 -0.00017173916 0.0005628343 0.00012241598 0.0011460404
-0.00065522135 -0.00039749633 0.0005510213 -0.00070564717 -2.0178753e-05 -0.00043534645 0.0016879671 -0.00023056602
-9.570885e-05 -0.00089305773 0.00011156636 0.0013664641 -0.0018140886 0.00032074697 0.0010618467 2.8129305e-05
0.00067074434 -0.00035517963 0.0028441742 -0.0024358209 -0.0011938061 0.0005390072 -0.0005723148 0.00032440733
-0.00033039344 -0.000285558 -0.0014269265 0.0005054529 -0.0001391938 0.00035203542 -0.0009657227 -0.00088058057
00000000: e4fb 75b7 0d08 25ba e3cd 0d39 2957 85ba
00000010: 6d28 4039 3131 313a 6061 1cb9 f14b ed3a
00000020: 82ce 8339 b46f 8f38 7675 7cba 065e 48bb
00000030: 50c7 f73a 423b 253b d986 c7b9 d315 0f3a
00000040: 6b61 ec37 0383 88ba fb60 b4b8 b5e7 20bb
00000050: 4383 b739 1eae 743b 03a6 753a 9ae0 d1ba
00000060: ba08 753a 7a68 bf39 2098 00b9 cdc6 1a3a
00000070: e114 34b9 2c8b 133a ca5c 0039 bc36 963a
00000080: 29c3 2bba 0e67 d0b9 6a72 103a 2efb 38ba
00000090: 8b45 a9b7 363f e4b9 c73e dd3a 18c4 71b9
000000a0: 4cb7 c8b8 171c 6aba bcf8 e938 ed1a b33a
000000b0: b6c6 edba ee29 a839 aa2d 8b3a 39f7 eb37
000000c0: e4d4 2f3a 6737 bab9 5365 3a3b 4ba2 1fbb
000000d0: 7c79 9cba 294c 0d3a 6507 16ba 3715 aa39
000000e0: a838 adb9 f2b6 95b9 b507 bbba 5f80 043a
000000f0: 8df4 11b9 6591 b839 8e28 7dba c3d6 66ba

features.5.weight f4 [64]
1.0058589 1.0435338 0.8152861 0.9465835 0.8191679 0.9545943 0.81105965 1.1038378
0.92880374 1.0144325 0.99749535 1.0017846 1.2157453 1.093115 0.90966153 0.77490443
0.86941415 1.0753319 1.1831692 1.0662428 0.9900867 1.1426342 1.0324938 1.0196246
0.9032802 0.89324 0.97484577 1.0759465 0.7664457 1.1069974 0.99842393 1.0368074
0.7417937 0.8684633 0.99223626 0.97476083 0.7178662 0.8572343 1.0513504 0.71666425
1.1001024 0.94425106 0.6958425 1.0695112 0.92953026 0.6832624 0.9736548 0.81028926
0.94814634 0.70957196 0.9730442 1.0518707 0.96394485 0.7801421 1.1014748 0.8311191
0.82741755 0.9102476 1.0330517 0.7752412 0.8163209 0.75856376 1.0200677 0.8033675
00000000: fcbf 803f 8492 853f 97b6 503f 4c53 723f
00000010: fdb4 513f 4b60 743f 9ba1 4f3f 8f4a 8d3f
00000020: 15c6 6d3f edd8 813f db5b 7f3f 7a3a 803f
00000030: 8b9d 9b3f 31eb 8b3f 94df 683f 2360 463f
00000040: ed91 5e3f 7aa4 893f 1772 973f a57a 883f
00000050: 5276 7d3f d641 923f c228 843f 0f83 823f
00000060: 5f3d 673f 60ab 643f 7e8f 793f 9db8 893f
00000070: c935 443f 17b2 8d3f b698 7f3f 1bb6 843f
00000080: 31e6 3d3f 9c53 5e3f 3203 7e3f ed89 793f
00000090: 14c6 373f b573 5b3f a692 863f 4f77 373f
000000a0: 28d0 8c3f 70ba 713f bc22 323f bee5 883f
000000b0: b2f5 6d3f 49ea 2e3f 7141 793f 1e6f 4f3f
000000c0: b8b9 723f 82a6 353f 6d19 793f b3a3 863f
000000d0: 17c5 763f 65b7 473f 20fd 8c3f 39c4 543f
000000e0: a3d1 533f fd05 693f 0a3b 843f 3576 463f
000000f0: 68fa 503f 3c31 423f 9491 823f 7ea9 4d3f

features.5.bias f4 [64]
-0.370585 -0.2382121 -0.27732733 -0.06754548 -0.19013977 -0.20112453 -0.16774347 -0.19104253
-0.34476188 -0.17072572 -0.3278712 -0.41590095 -0.18942784 -0.23623157 -0.2107473 -0.31948128
-0.14773478 -0.28943256 -0.22630332 -0.29323494 -0.29032534 -0.20892002 -0.089922965 -0.3157253
-0.38803083 -0.12985945 -0.07242022 -0.22667615 -0.29484433 -0.24728411 -0.16105226 -0.21800643
-0.26851064 -0.23957229 -0.19215201 -0.21792123 -0.25947607 -0.14926034 -0.26919663 -0.26191986
-0.13798235 -0.058130197 -0.28718722 -0.33077466 -0.06737002 -0.3002046 -0.20010884 -0.260249
-0.2858816 -0.3995789 -0.32486707 -0.21547739 -0.07805457 -0.25021413 -0.28621385 -0.36533377
-0.16157457 -0.10748003 -0.1493478 -0.26550823 -0.21478003 -0.23777598 -0.37281635 -0.2308805
00000000: 51bd bdbe dfed 73be d9fd 8dbe 4955 8abd
00000010: 00b4 42be 97f3 4dbe f2c4 2bbe a7a0 43be
00000020: a184 b0be b9d2 2ebe bcde a7be f8f0 d4be
00000030: 5ff9 41be b0e6 71be 24ce 57be 0d93 a3be
00000040: c947 17be 8130 94be 0fbc 67be e422 96be
00000050: 86a5 94be 21ef 55be 8829 b8bd bfa6 a1be
00000060: faab c6be e0f9 04be 0d51 94bd cb1d 68be
00000070: d6f5 96be 0c38 7dbe e2ea 24be 143d 5fbe
00000080: 3a7a 89be 7052 75be 7fc3 44be be26 5fbe
00000090: 0cda 84be b4d7 18be 24d4 89be 5c1a 86be
000000a0: 3f4b 0dbe ee19 6ebd 340a 93be 4c5b a9be
000000b0: 4bf9 89bd 6bb4 99be 55e9 4cbe 5b3f 85be
000000c0: 135f 92be 9b95 ccbe fa54 a6be 1ba6 5cbe
000000d0: 13db 9fbd 111c 80be 9f8a 92be 070d bbbe
000000e0: ce73 25be 7d1e dcbd a1ee 18be b2f0 87be
000000f0: 4cef 5bbe 8c7b 73be c9e1 bebe f06b 6cbe

features.5.running_mean f4 [64]
-0.29634106 -0.2949841 -0.83488476 -0.26503783 -0.75249 -0.41451818 -0.21643291 -0.14982586
-0.5261168 -0.2391311 -0.1998224 -0.396507 -0.7080296 -0.26461536 -0.5797582 -0.6190982
0.47157755 -0.08230603 -0.7431508 -0.13713881 0.11634962 0.32525444 -0.47726002 -0.53191835
-1.30743 0.017058134 -0.86425143 0.25652325 -0.8213158 -0.3518756 0.44244224 -0.79774123
-0.43714255 -0.16563223 -0.1156695 -0.5923492 -0.5163177 -0.41725644 -0.3126444 -0.72225225
-0.118737414 -0.023195127 -0.33414543 -0.15852264 -0.12230822 -0.84882534 -0.6470684 -0.6985006
-0.88035077 -1.4829926 0.1372875 -0.6495772 -0.8484483 -0.31438887 -0.62044406 -0.64566183
-0.30922648 -0.66841507 -0.37805727 -0.6715262 -0.7488332 -1.0354868 0.027459461 -0.6118668
00000000: 04ba 97be 2808 97be 02bb 55bf 0ab3 87be
00000010: 2fa3 40bf ba3b d4be 97a0 5dbe f36b 19be
00000020: 97af 06bf c8de 74be 3e9e 4cbe f702 cbbe
00000030: 6e41 35bf aa7b 87be 096b 14bf 387d 1ebf
00000040: 9d72 f13e 1090 a8bd 213f 3ebf 1e6e 0cbe
00000050: b648 ee3d c087 a63e 6d5b f4be cd2b 08bf
00000060: de59 a7bf 80bd 8b3c 953f 5dbf 0457 833e
00000070: c141 52bf 0a29 b4be ca87 e23e c538 4cbf
00000080: 26d1 dfbe 7f9b 29be 21e4 ecbd 32a4 17bf
00000090: 662d 04bf a3a2 d5be ed12 a0be 86e5 38bf
000000a0: 9a2c f3bd b503 bebc 1c15 abbe c253 22be
000000b0: bb7c fabd 9e4c 59bf 46a6 25bf efd0 32bf
000000c0: ab5e 61bf b4d2 bdbf 1895 0c3e b14a 26bf
000000d0: e833 59bf 94f7 a0be 6cd5 1ebf 184a 25bf
000000e0: ef52 9ebe 401d 2bbf b990 c1be 24e9 2bbf
000000f0: 88b3 3fbf d58a 84bf aaf2 e03c 4da3 1cbf

features.5.running_var f4 [64]
0.36423427 0.6364024 0.68912125 1.063792 0.7619902 0.35727108 1.3787436 0.24246329
0.38547808 0.48783845 0.61964524 0.19304731 0.21597911 0.2807745 0.37583768 0.55996966
1.2825239 0.4965672 0.298773 0.30182448 0.21814574 0.23109241 0.3839139 0.395581
0.4134065 1.4740787 0.7995677 0.23555538 1.0650252 0.6937276 0.7635314 0.55885255
1.1769471 0.9335022 0.69624525 0.6009513 1.3243434 0.7044954 0.24810492 1.0358793
0.24861373 0.376994 0.76683325 0.20219299 0.47025046 1.10943 0.23428917 0.9572748
0.7049566 0.29847983 0.2329652 0.41371295 0.70324343 1.1026773 0.35042295 0.4852498
0.7869107 0.76778275 0.5311777 0.9279975 0.83761543 0.59846866 0.22855183 0.7073669
00000000: ea7c ba3e 45eb 223f 406a 303f 562a 883f
00000010: ca11 433f 3cec b63e ac7a b03f 4c48 783e
00000020: 625d c53e f6c5 f93e 12a1 1e3f 32ae 453e
00000030: a129 5d3e adc1 8f3e cc6d c03e 2c5a 0f3f
00000040: be29 a43f 0e3e fe3e c6f8 983e bd88 9a3e
00000050: 9961 5f3e 7da3 6c3e 5d90 c43e 9889 ca3e
00000060: 04aa d33e 9cae bc3f 78b0 4c3f 6e35 713e
00000070: bf52 883f 2298 313f cb76 433f f610 0f3f
00000080: 34a6 963f 00fa 6e3f 213d 323f f2d7 193f
00000090: 1684 a93f cf59 343f 370f 7e3e b197 843f
000000a0: 9994 7e3e 5c05 c13e 2f4f 443f ae0b 4f3e
000000b0: abc4 f03e cd01 8e3f 80e9 6f3e f60f 753f
000000c0: 0978 343f 59d2 983e 6e8e 6e3e 2fd2 d33e
000000d0: c307 343f 8824 8d3f a36a b33e a972 f83e
000000e0: fb72 493f 698d 443f 43fb 073f 3f91 6d3f
000000f0: f76d 563f 3e35 193f 7e09 6a3e ff15 353f

features.8.weight f4 [128, 64, 3, 3]
-0.037040025 -0.01149261 -0.0077466327 0.00603725 -0.029844314 -0.00841893 0.018183483 -0.05595708
-0.021339284 -0.042254105 0.004574184 0.06376321 -0.014060655 -0.007005063 -0.015701601 0.030470725
0.009654568 0.0015440184 0.02205811 0.029115045 0.03629276 0.0010156073 0.0023333963 0.037354328
0.03164754 0.0039562616 0.038676355 0.004671595 0.02255711 0.027243642 -0.023399845 0.01010658
-0.0036170299 -0.02907335 -0.008898004 -0.008657176 -0.014283426 -0.011351929 -0.03519796 0.0023397193
-0.0038295372 -0.026639752 -0.0055052447 -0.004160364 -0.020343546 -0.017995317 0.015341981 0.001186775
-0.043601338 0.0029182544 0.0013366335 -0.0028793553 -0.0059388513 0.015736919 -0.0402487 -0.027015017
0.009563123 -0.023854775 -0.024035744 -0.014122588 -0.02602995 0.0031578091 -0.01674052 0.007481256
-0.0027818063 -0.009292562 0.0115912175 0.023413869 0.03021213 -0.0152608305 -0.024728399 0.028224872
0.0021433341 0.0055462224 0.0046427436 -0.00019199238 -0.02538584 0.018877788 0.01690622 -0.0023011672
0.013529237 -0.02536311 -0.03163725 -0.0049904613 -0.014577532 0.01399139 -0.018218875 0.015872031
0.0027424844 -0.032381263 0.005976461 -0.017222444 -0.0365984 -0.047277458 -0.05503926 -0.01573284
0.023607977 -0.012719153 -0.055889584 0.003494857 -0.0119991535 -0.052709397 -0.018821923 -0.037394896
-0.048526034 -0.028319737 -0.028750978 -0.027675468 0.14770272 0.11606718 0.061602604 0.10484984
0.12570238 0.07064564 0.058380418 0.08893302 0.10048712 0.009597147 0.007412461 0.031260837
-0.029538356 -0.0068504093 0.016830454 0.015508567 0.0021988333 0.009894525 0.0024524382 -0.019292902
0.006410026 0.02013676 -0.02950367 -0.008645147 -0.015424187 -0.01924776 -0.011165876 0.014185059
0.03509182 -0.012922338 0.053913616 0.0036152832 -0.010158259 0.01677241 0.050578974 0.010039268
-0.010519097 -0.026297957 0.021839665 -0.026219988 -0.0012884823 0.008890621 -0.031944416 -0.036353085
-0.037096743 0.008389701 -0.006381936 -0.046562523 0.015026605 -0.04117818 -0.043450825 0.0085445875
-0.033387925 -0.048497688 -0.038706314 -0.08176124 -0.045758862 -0.022271104 -0.08541856 -0.053144235
0.008987183 -0.05600514 -0.084031746 0.043394882 0.022489574 0.05575321 0.03625432 0.006267479
0.02165785 0.054022454 0.020867549 0.03249679 -0.037523113 -0.04912103 -0.03228402 -0.03651409
-0.03292214 -0.04552378 -0.0025903643 -0.012662518 -0.038676396 -0.06428594 -0.024779053 0.016838476
-0.021583445 -0.013995481 -0.0053567025 -0.026807746 0.009326296 -0.015056863 0.040705737 0.0119649945
0.0033536965 0.004669809 -0.015409294 0.0195892 -0.011688485 -0.0322225 0.017521922 0.0033737533
-0.028362677 -0.013213464 -0.0057045333 0.0044710147 -0.0134703005 -0.025447993 -0.015505592 -0.007926002
0.03898114 0.010154017 0.0018412459 0.023329714 0.046819463 0.012152298 0.03888891 0.041102592
-0.0069183037 -0.009801519 0.0261471 0.043604776 0.0056856684 0.03138252 0.015690878 0.02326315
-0.00441757 0.0022910505 -0.04668147 0.012691363 -0.0059354748 -0.02813657 -0.055003665 0.0001468149
-0.042129707 -0.036902424 -0.029762933 -0.0089469105 0.0052675786 0.03442378 0.018654736 0.028559735
0.01793778 0.0021971075 0.01019356 0.043535594 -0.0072553223 0.017027155 0.009636246 0.004630719
00000000: 48b7 17bd 804b 3cbc 77d7 fdbb 20d4 c53b
00000010: 107c f4bc 8def 09bc 87f5 943c 4033 65bd
00000020: b9cf aebc a412 2dbd 09e3 953b 4996 823d
00000030: a95e 66bc ba8a e5bb a5a0 80bc be9d f93c
00000040: 312e 1e3c a960 ca3a 36b3 b43c ad82 ee3c
00000050: b8a7 143d 201e 853a e5eb 183b da00 193d
00000060: daa0 013d 87a3 813b 196b 1e3d 2e14 993b
00000070: b0c9 b83c 0f2e df3c 08b1 bfbc 1296 253c
00000080: b10b 6dbb 3c2b eebc efc8 11bc d4d6 0dbc
00000090: 0805 6abc 71fd 39bc bc2b 10bd fa55 193b
000000a0: f9f8 7abb 9c3b dabc 5765 b4bb aa53 88bb
000000b0: 82a7 a6bc ea6a 93bc ef5c 7b3c 908d 9b3a
000000c0: 5197 32bd 2f40 3f3b fa31 af3a 91b3 3cbb
000000d0: b29a c2bb b6ea 803c d2db 24bd 994e ddbc
000000e0: a5ae 1c3c 176b c3bc 9ce6 c4bc 6d62 67bc
000000f0: c33c d5bc 3ff3 4e3b 6a23 89bc 5325 f53b
00000100: f74e 36bb d43f 18bc 17e9 3d3c 71ce bf3c
00000110: 6e7f f73c 9008 7abc 3693 cabc d937 e73c
00000120: 2e77 0c3b 16bd b53b 2822 983b 9051 49b9
00000130: f7f5 cfbc 97a5 9a3c ea7e 8a3c 2ecf 16bb
00000140: bca9 5d3c 4cc6 cfbc 1096 01bd 0687 a3bb
00000150: 9ad6 6ebc 253c 653c c03f 95bc 1006 823c
00000160: 41bb 333b 37a2 04bd 30d6 c33b 1516 8dbc
00000170: 34e8 15bd 02a6 41bd d970 61bd 28e2 80bc
00000180: 8465 c13c ff63 50bc 7aec 64bd f909 653b
00000190: 1998 44bc cfe5 57bd 6f30 9abc 642b 19bd
000001a0: 3cc3 46bd cbfe e7bc 2c87 ebbc aab7 e2bc
000001b0: 623f 173e a1b4 ed3d 0353 7c3d 83bb d63d
000001c0: 20b8 003e a9ae 903d 4e20 6f3d 8422 b63d
000001d0: 31cc cd3d 5a3d 1d3c 3be4 f23b 5d0b 003d
000001e0: 6cfa f1bc 6679 e0bb 05e0 893c a517 7e3c
000001f0: 4d1a 103b a51c 223c 16b9 203b 260c 9ebc
00000200: 320b d23b d9f5 a43c aeb1 f1bc 60a4 0dbc
00000210: bbb5 7cbc 7aad 9dbc 14f1 36bc 7368 683c
00000220: 71bc 0f3d 37b8 53bc 86d4 5c3d 63ee 6c3b
00000230: d46e 26bc 4b66 893c e62b 4f3d be7b 243c
00000240: 4a58 2cbc d06e d7bc 19e9 b23c 4dcb d6bc
00000250: 4be2 a8ba f8a9 113c 26d8 02bd f9e6 14bd
00000260: c1f2 17bd f574 093c 8f1f d1bb 58b8 3ebd
00000270: 2632 763c 74aa 28bd 7ef9 31bd 99fe 0b3c
00000280: c7c1 08bd 83a5 46bd 838a 1ebd 7072 a7bd
00000290: a56d 3bbd e471 b6bc edef aebd c5ad 59bd
000002a0: fa3e 133c a565 65bd d618 acbd d5be 313d
000002b0: 0e3c b83c 7a5d 643d 697f 143d 6d5f cd3b
000002c0: ce6b b13c a646 5d3d 6cf2 aa3c 5b1b 053d
000002d0: d6b1 19bd 2233 49bd 403c 04bd cc8f 15bd
000002e0: 5ed9 06bd 2577 3abd 1ac3 29bb 7376 4fbc
000002f0: 246b 1ebd 59a8 83bd 71fd cabc d8f0 893c
00000300: c4cf b0bc 4d4d 65bc 4787 afbb eb9b dbbc
00000310: 52cd 183c 10b1 76bc 0fbb 263d d308 443c
00000320: b1c9 5b3b 3205 993b 4377 7cbc 8879 a03c
00000330: 0f81 3fbc bdfb 03bd 228a 8f3c 301a 5d3b
00000340: d858 e8bc 497d 58bc 18ed babb 9781 923b
00000350: 89b2 5cbc 4f78 d0bc 2b0b 7ebc 10dc 01bc
00000360: b0aa 1f3d 095d 263c f655 f13a f51d bf3c
00000370: c4c5 3f3d 6f1a 473c fa49 1f3d 315b 283d
00000380: f0b2 e2bb 8d96 20bc 7132 d63c ec9a 323d
00000390: d84e ba3b f58a 003d 288a 803c 5d92 be3c
000003a0: 43c1 90bb 7325 163b 1235 3fbd 6fef 4f3c
000003b0: 5f7e c2bb aa7e e6bc 864b 61bd 53f2 1939
000003c0: 3390 2cbd ff26 17bd 65d1 f3bc 1096 12bc
000003d0: a79b ac3b f3ff 0c3d d1d1 983c 1bf6 e93c
000003e0: 40f2 923c 59fd 0f3b e402 273c 6152 323d
000003f0: 0ebe edbb 887c 8b3c 58e1 1d3c 49bd 973b

features.8.bias f4 [128]
8.004476e-06 6.3293546e-06 2.1474574e-05 3.069872e-06 -4.8972404e-05 5.2853517e-05 3.0113639e-05 -6.1553146e-05
-1.8464332e-05 -6.4573396e-05 -1.710443e-05 6.2041654e-05 -2.3744018e-05 -2.1429753e-06 3.676874e-05 3.3860383e-06
-7.791622e-05 -4.4463086e-05 -4.97024e-06 6.7642904e-05 -1.0105603e-05 -1.0168213e-05 4.6872383e-06 -8.682402e-06
3.4848222e-06 -1.7965052e-05 4.2255582e-05 -3.699361e-05 -7.2860814e-05 1.881904e-05 -0.00011943305 -8.77004e-06
-0.00011304849 -5.47326e-06 5.5073044e-05 4.1016225e-05 -6.522919e-05 4.6575296e-05 1.787144e-05 1.8082046e-05
4.904733e-05 -4.562085e-05 3.7839214e-05 -3.7610345e-05 -8.297817e-06 -4.947991e-06 8.602319e-06 8.137249e-06
-8.591225e-06 7.8665405e-05 4.9874816e-05 4.4942324e-05 3.617034e-05 -2.953234e-06 -1.1283489e-06 4.415622e-05
-8.217377e-07 -1.5577109e-05 3.1894413e-06 -8.620803e-06 -1.9842595e-05 4.6440877e-05 -3.140116e-05 -6.0984443e-05
-1.5225858e-05 4.0220835e-05 -2.7654605e-05 -5.305728e-05 4.2382104e-05 3.196551e-05 -8.037668e-06 -2.3696353e-05
-2.634402e-05 -2.2511616e-05 2.5100282e-05 6.6520304e-05 -2.8304228e-05 4.9304745e-05 -3.821362e-05 -3.245658e-05
6.530118e-05 -4.473827e-06 2.1654092e-05 3.6981823e-05 -2.4340083e-05 -5.573249e-05 -5.880533e-05 -9.0270405e-06
-1.5999032e-05 -4.3558408e-05 1.6516524e-05 2.017849e-05 -3.978714e-05 -1.0009219e-06 -1.1170607e-06 1.2226702e-05
3.9138853e-05 -1.3031133e-05 -1.1493518e-05 -6.196712e-05 -1.2056105e-05 -0.00010988682 -3.07241e-05 2.470475e-05
4.311293e-05 1.7023594e-05 -3.695897e-05 -1.3998705e-05 5.3806958e-05 9.234266e-06 -2.1630458e-05 1.8507515e-05
3.0215433e-05 7.5817566e-06 -6.040994e-05 1.6063912e-05 -1.7344054e-06 -3.083931e-05 1.5389354e-05 4.523624e-05
3.0601837e-05 1.1152361e-05 -4.8102316e-05 6.8005844e-05 4.0439263e-05 2.670454e-06 -4.531846e-06 1.3398792e-05
00000000: f64a 0637 be60 d436 4c24 b437 0004 4e36
00000010: b867 4db8 08af 5d38 8c9c fc37 1816 81b8
00000020: dae3 9ab7 946b 87b8 7c7b 8fb7 5c1c 8238
00000030: e42d c7b7 09d0 0fb6 2238 1a38 b23b 6336
00000040: f466 a3b8 e07d 3ab8 09c6 a6b6 82db 8d38
00000050: 3c8b 29b7 2498 2ab7 1247 9d36 a2aa 11b7
00000060: cadc 6936 a8b3 96b7 963b 3138 9629 1bb8
00000070: dacc 98b8 95dd 9d37 2178 fab8 0923 13b7
00000080: 7214 edb8 f2a6 b7b6 3bfe 6638 d608 2c38
00000090: a8cb 88b8 d859 4338 a0ea 9537 e6ae 9737
000000a0: 2bb8 4d38 0459 3fb8 8cb5 1e38 cdbf 1db8
000000b0: da36 0bb7 eb06 a6b6 ae52 1037 3885 0837
000000c0: 0823 10b7 2bf9 a438 ad30 5138 7480 3c38
000000d0: 9bb5 1738 2c30 46b6 c671 97b5 6134 3938
000000e0: 6295 5cb5 96ab 82b7 2f0a 5636 11a2 10b7
000000f0: a673 a6b7 83c9 4238 bdb4 03b8 8cc9 7fb8
00000100: 9072 7fb7 cbb2 2838 d0fb e7b7 d289 5eb8
00000110: 70c3 3138 b412 0638 85d9 06b7 88c7 c6b7
00000120: 5afd dcb7 54d7 bcb7 728e d237 d180 8b38
00000130: de6e edb7 91cc 4e38 9047 20b8 fd21 08b8
00000140: 4ef2 8838 e21d 96b6 cfa5 b537 ee1c 1b38
00000150: ee2d ccb7 4ec2 69b8 bea5 76b8 d872 17b7
00000160: a935 86b7 7cb2 36b8 f78c 8a37 fa44 a937
00000170: 1ee1 26b8 6a57 86b5 eaed 95b5 4921 4d37
00000180: 0629 2438 4aa0 5ab7 49d4 40b7 58f4 81b8
00000190: 9444 4ab7 0a73 e6b8 c0dd 00b8 0c3d cf37
000001a0: 28d4 3438 e4cd 8e37 6404 1bb8 fbdb 6ab7
000001b0: c8ae 6138 dfec 1a37 0e73 b5b7 9640 9b37
000001c0: 2677 fd37 cb66 fe36 ae60 7db8 fdc0 8637
000001d0: b7c9 e8b5 7559 01b8 6318 8137 0bbc 3d38
000001e0: 795a 0038 071b 3b37 78c1 49b8 5c9e 8e38
000001f0: 549d 2938 0d36 3336 4310 98b6 60cb 6037

features.9.weight f4 [128]
1.2193867 1.119599 1.1647091 1.2042894 1.2258396 1.182239 1.251471 1.1250372
1.1755459 1.1140578 1.1533794 1.2579062 1.002108 1.2740016 1.1814191 1.1275265
1.0936924 1.2119339 1.071464 1.2501746 1.1378993 1.0982337 1.2254509 1.2702492
1.2081869 1.2028815 1.1918623 1.2154968 1.1443026 1.2688824 1.1150932 1.1284013
1.2192402 1.0774815 1.1413078 1.1319577 1.1727694 1.1017516 1.2420548 1.1344851
1.1786485 1.191146 1.1823212 1.1560657 1.190647 1.1383817 1.2527146 1.1645797
1.0731621 1.1728618 1.1216494 1.1847678 1.1600789 1.2660879 1.213423 1.1726171
1.124301 1.1657393 1.1199279 1.2314054 1.1563718 1.2279767 1.1785042 1.2068148
1.2395678 1.2148163 1.1341586 1.1793245 1.2625713 1.1212207 1.0898979 1.1002934
1.1943026 1.233324 1.1636196 1.150862 1.1534266 1.1852169 1.224504 1.1998767
1.2221493 1.1756542 1.2337041 1.2091907 1.1061465 1.1584253 1.1722751 1.25643
1.2125189 1.0503722 1.1786683 1.2882551 1.2683189 1.1690108 1.1246555 1.1967404
1.0695646 1.1553432 1.2055216 1.0468155 1.0626606 1.052346 1.1739948 1.2790585
1.2172412 1.2488766 1.1555564 1.2006637 1.1816318 1.0627029 1.2302994 1.1799508
1.25345 1.156622 1.1628598 1.2538047 1.1973906 1.2097276 1.1544248 1.0837462
1.3167299 1.0377425 1.1570233 1.1820148 1.1759574 1.2082349 1.1128862 1.1436388
00000000: dd14 9c3f 054f 8f3f 3015 953f 2826 9a3f
00000010: 50e8 9c3f 9c53 973f 3430 a03f 3801 903f
00000020: 4a78 963f 7299 8e3f f0a1 933f 1203 a13f
00000030: 1345 803f 7c12 a33f be38 973f ca52 903f
00000040: 1dfe 8b3f a620 9b3f bb25 893f b905 a03f
00000050: afa6 913f ec92 8c3f 93db 9c3f 8797 a23f
00000060: dea5 9a3f 05f8 993f f28e 983f 6695 9b3f
00000070: 8278 923f bd6a a23f 60bb 8e3f 746f 903f
00000080: 1010 9c3f eaea 893f 6016 923f fde3 903f
00000090: 4f1d 963f 3206 8d3f a7fb 9e3f cf36 913f
000000a0: f4dd 963f 7977 983f 4d56 973f f6f9 933f
000000b0: 1f67 983f 7eb6 913f f458 a03f f310 953f
000000c0: 605d 893f 5620 963f 3592 8f3f 79a6 973f
000000d0: 777d 943f 2b0f a23f 7251 9b3f 5118 963f
000000e0: 18e9 8f3f f236 953f cc59 8f3f b19e 9d3f
000000f0: fe03 943f 572e 9d3f 3ad9 963f e878 9a3f
00000100: 28aa 9e3f 1a7f 9b3f 1c2c 913f 1bf4 963f
00000110: f09b a13f 2984 8f3f c681 8b3f 6ad6 8c3f
00000120: e8de 983f 90dd 9d3f 7df1 943f 724f 933f
00000130: 7ca3 933f 30b5 973f 8cbc 9c3f 8f95 993f
00000140: 636f 9c3f d67b 963f 04ea 9d3f c3c6 9a3f
00000150: 3596 8d3f 4847 943f 1c0d 963f b3d2 a03f
00000160: d233 9b3f 9972 863f 9ade 963f 8be5 a43f
00000170: 4658 a23f 25a2 953f b6f4 8f3f ca2e 993f
00000180: 7ee7 883f 49e2 933f 884e 9a3f 0dfe 853f
00000190: 4305 883f 46b3 863f 7645 963f 30b8 a33f
000001a0: 8fce 9b3f 30db 9f3f 46e9 933f 59af 993f
000001b0: b63f 973f a606 883f 737a 9d3f a108 973f
000001c0: 0d71 a03f 310c 943f 97d8 943f ac7c a03f
000001d0: 1844 993f 5bd8 9a3f 31c4 933f 32b8 8a3f
000001e0: 9b8a a83f bfd4 843f 5719 943f 434c 973f
000001f0: c685 963f 71a7 9a3f 0e73 8e3f c262 923f

features.9.bias f4 [128]
-0.05580487 -0.078492224 -0.11859398 -0.11975617 -0.029172886 -0.04790706 -0.10853432 -0.11769625
-0.12750329 -0.07915729 -0.07803368 -0.052323017 -0.067664936 -0.046669807 -0.09154427 -0.018312516
-0.083530866 -0.11785488 -0.039180197 -0.11812569 -0.099912375 -0.08455298 -0.057094168 -0.057142463
-0.09477881 -0.07636498 -0.13233781 -0.11235874 0.0025758846 -0.09273474 -0.073597424 -0.076169334
-0.053891372 -0.0484354 -0.102872156 -0.07677408 -0.064272046 -0.06542657 -0.09403906 -0.06119585
-0.07909293 -0.10812596 -0.14031127 -0.050258793 -0.045951355 -0.08800673 -0.08926262 -0.06318334
-0.15236251 -0.102579735 -0.111170724 -0.08356241 -0.13160424 -0.10823353 -0.054843284 -0.083833344
-0.12967446 -0.06152251 -0.10884286 -0.14298856 -0.07555406 -0.07763264 -0.07476387 -0.1157728
-0.09841372 -0.081211895 -0.062057804 -0.13347471 -0.11570891 -0.03429669 -0.037582725 -0.0437608
-0.10706175 -0.06219706 -0.086278476 -0.062263552 -0.10240676 -0.083261415 -0.118316926 -0.1542957
-0.068753585 -0.11296308 -0.079758756 -0.08652087 -0.09523618 -0.11632728 -0.13065217 -0.09264189
-0.10306251 -0.103748076 -0.10366071 -0.11663429 -0.11937803 -0.094584376 -0.038711254 -0.08389918
-0.04219332 -0.068079576 -0.052672174 -0.08065988 -0.097896524 -0.04285481 -0.07263479 -0.10763162
-0.09425972 -0.11993068 -0.12526898 -0.07288356 -0.09837091 -0.0988412 -0.10784437 -0.10390497
-0.107782446 -0.11817307 -0.072303995 -0.07484904 -0.08050066 -0.07987293 -0.100751385 -0.06359507
-0.107849754 -0.0168308 -0.15299286 -0.04768995 -0.10207319 -0.06821518 -0.069888316 -0.091024466
00000000: a693 64bd 88c0 a0bd 67e1 f2bd b942 f5bd
00000010: fafb eebc 313a 44bd 3e47 debd bb0a f1bd
00000020: 3990 02be 381d a2bd 1fd0 9fbd a950 56bd
00000030: ea93 8abd d728 3fbd 907b bbbd 2104 96bc
00000040: 3b12 abbd e65d f1bd 6a7b 20bd e2eb f1bd
00000050: dc9e ccbd 1d2a adbd 93db 69bd 370e 6abd
00000060: 651b c2bd 3e65 9cbd 9083 07be 571c e6bd
00000070: 2cd0 283b b6eb bdbd 3fba 96bd abfe 9bbd
00000080: 33bd 5cbd 3364 46bd a3ae d2bd bb3b 9dbd
00000090: 10a1 83bd 5efe 85bd 8d97 c0bd 80a8 7abd
000000a0: 79fb a1bd 2571 ddbd c2ad 0fbe 2adc 4dbd
000000b0: 7d37 3cbd df3c b4bd 52cf b6bd 4466 81bd
000000c0: eb04 1cbe 5315 d2bd 7aad e3bd c522 abbd
000000d0: 43c3 06be 8aa9 ddbd 5aa3 60bd d1b0 abbd
000000e0: 62c9 04be 07ff 7bbd 01e9 debd 986b 12be
000000f0: 16bc 9abd ddfd 9ebd cd1d 99bd 4a1a edbd
00000100: 228d c9bd 6c52 a6bd 5330 7ebd 98ad 08be
00000110: cbf8 ecbd b07a 0cbd 58f0 19bd 863e 33bd
00000120: 3143 dbbd 58c2 7ebd c5b2 b0bd 1108 7fbd
00000130: a3ba d1bd f684 aabd 2550 f2bd b1ff 1dbe
00000140: aece 8cbd 3059 e7bd 8f58 a3bd db31 b1bd
00000150: 300b c3bd ff3c eebd afc9 05be 08bb bdbd
00000160: 7012 d3bd df79 d4bd 114c d4bd f5dd eebd
00000170: 787c f4bd 74b5 c1bd b18f 1ebd 55d3 abbd
00000180: e7d2 2cbd 4e6d 8bbd c7be 57bd 0231 a5bd
00000190: f97d c8bd 8688 2fbd 8cc1 94bd f76d dcbd
000001a0: 3d0b c1bd 379e f5bd 8346 00be fa43 95bd
000001b0: b076 c9bd 416d cabd 82dd dcbd 21cc d4bd
000001c0: 0bbd dcbd b904 f2bd 1e14 94bd 744a 99bd
000001d0: 88dd a4bd 6b94 a3bd be56 cebd 223e 82bd
000001e0: 55e0 dcbd bfe0 89bc 29aa 1cbe 8956 43bd
000001f0: c00b d1bd 66b4 8bbd 9b21 8fbd 096b babd

features.9.running_mean f4 [128]
-0.16221769 0.061967302 0.24093701 0.1983694 -0.30070615 0.19116494 0.15259106 0.23251203
0.05865218 0.010344426 0.08487681 -0.016365223 0.18734948 -0.17216331 -0.18820551 -0.22705199
0.25122914 -0.0007852794 0.07926252 -0.061778877 0.11375851 0.07526616 -0.02726853 -0.05755339
0.20544378 -0.042402063 -0.03316315 0.031646125 -0.16234156 0.23766328 0.22733581 -0.13710436
0.019444346 -0.1595222 0.14506711 0.088026784 -0.071925014 0.046213552 0.3412907 -0.17794782
0.0041670045 0.18466605 0.13604975 0.11963005 -0.10478709 0.21728478 -0.12110486 -0.07172607
0.12789854 0.03841858 0.19904406 0.08765701 0.14564434 -0.15225019 -0.038585212 -0.07058823
0.18076105 0.04015533 -0.06559835 0.03811406 0.034909237 -0.08758015 0.07105907 0.29260725
0.21841644 0.14471218 -0.10954285 -0.095431075 0.15523443 0.014508566 -0.12708831 -0.17334
-0.12415448 0.018419567 0.09289306 -0.08193356 0.15006822 0.11758997 -0.086461544 0.18872511
-0.16154915 0.22192612 0.06593567 0.086452276 0.11403496 0.16243958 0.319769 -0.021386432
0.09744942 0.2110584 -0.021595841 0.041498497 -0.12393878 0.3540878 -0.029081088 0.31087035
-0.06838489 -0.05602295 -0.09047806 0.14943299 -0.049703997 -0.1547003 -0.07645677 0.06564397
0.16905871 0.12209008 0.2583178 -0.021424636 0.25121123 0.039922412 0.10805216 0.0741239
-0.031801723 0.2728144 -0.046148613 0.17263965 0.061604135 -0.09997308 0.035057496 0.13673335
0.17595354 -0.08753323 0.029645069 0.075575866 -0.12370501 0.21273403 0.119936936 0.09228527
00000000: 651c 26be 6dd1 7d3d 31b8 763e 5921 4b3e
00000010: 28f6 99be bec0 433e d540 1c3e a217 6e3e
00000020: 453d 703d ab7b 293c e5d3 ad3d 5c10 86bc
00000030: 8bd8 3f3e 944b 30be f2b8 40be 5180 68be
00000040: 1ba1 803e 35db 4dba 6354 a23d d90b 7dbd
00000050: 39fa e83d 2525 9a3d 4162 dfbc 1abd 6bbd
00000060: db5f 523e c9ad 2dbd 15d6 07bd 5e9f 013d
00000070: de3c 26be 015e 733e b8ca 683e 1665 0cbe
00000080: c049 9f3c ca59 23be 798c 143e 6347 b43d
00000090: 6c4d 93bd 6c4a 3d3d a8bd ae3e f437 36be
000000a0: 5e8b 883b 1919 3d3e a050 0b3e 9a00 f53d
000000b0: 9d9a d6bd e77f 5e3e d305 f8bd 1ee5 92bd
000000c0: d6f7 023e cd5c 1d3d 35d2 4b3e 8585 b33d
000000d0: ca23 153e 79e7 1bbe 870b 1ebd 9090 90bd
000000e0: 6d19 393e ea79 243d 6d58 86bd 7d1d 1c3d
000000f0: fdfc 0e3d 395d b3bd 6b87 913d 9ed0 953e
00000100: 8fa8 5f3e 6e2f 143e 0058 e0bd 5e71 c3bd
00000110: c6f5 1e3e 56b5 6d3c 7023 02be 0a80 31be
00000120: b444 febd a2e4 963c b73e be3d c8cc a7bd
00000130: 7cab 193e 03d3 f03d c012 b1bd 2841 413e
00000140: 246d 25be 9a40 633e 4809 873d e40d b13d
00000150: 298b e93d 9056 263e c3b8 a33e 9932 afbc
00000160: 9093 c73d b11f 583e c3e9 b0bc 54fa 293d
00000170: 9dd3 fdbd ff4a b53e 763b eebc 662a 9f3e
00000180: 610d 8cbd 5278 65bd 904c b9bd f604 193e
00000190: 6b96 4bbd c169 1ebe 5e95 9cbd 5970 863d
000001a0: ba1d 2d3e 5d0a fa3d 3b42 843e b882 afbc
000001b0: c29e 803e af85 233d 734a dd3d 45ce 973d
000001c0: 8642 02bd 54ae 8b3e 5406 3dbd 73c8 303e
000001d0: 9e54 7c3d b0be ccbd 7398 0f3d d403 0c3e
000001e0: 2a2d 343e 9f44 b3bd 37da f23c 85c7 9a3d
000001f0: 0d59 fdbd f3d6 593e 7fa1 f53d 0f00 bd3d

features.9.running_var f4 [128]
0.03985744 0.03714406 0.042127512 0.04168348 0.032756183 0.049095944 0.03894923 0.04366568
0.04678893 0.027281478 0.031188158 0.034579594 0.027872594 0.04256216 0.028866364 0.03308866
0.031177694 0.052424483 0.032563243 0.04035299 0.043014716 0.029582718 0.04169988 0.045502596
0.045916375 0.03700562 0.037743717 0.053415976 0.02685171 0.03994112 0.033102777 0.035398
0.034957033 0.030591886 0.03529907 0.026106356 0.031922754 0.05270007 0.04300986 0.035562098
0.037412938 0.042482093 0.044467516 0.04199929 0.036796127 0.050671425 0.04914048 0.038851377
0.025095545 0.034282327 0.043375183 0.044649944 0.04146736 0.0388514 0.047233522 0.035648875
0.041363873 0.03346466 0.028607957 0.043951705 0.031913552 0.03995878 0.039182354 0.042777587
0.05116394 0.055078708 0.026876524 0.033050567 0.045903314 0.040345944 0.029758425 0.028270826
0.035254486 0.05456018 0.05868955 0.041081462 0.045528423 0.043671727 0.038909037 0.037506096
0.041786455 0.03079116 0.048200622 0.053913407 0.03137036 0.0425963 0.042028304 0.04427269
0.04824797 0.031556144 0.035102 0.058220867 0.04395576 0.041908085 0.024814062 0.04344874
0.023333738 0.047326423 0.040398475 0.02750609 0.02950793 0.020649757 0.036660198 0.036222294
0.030851431 0.050555725 0.04815452 0.04874271 0.042558633 0.041760623 0.054416664 0.04234299
0.042502202 0.030091356 0.03328391 0.031466387 0.04268592 0.04773991 0.045163993 0.043835923
0.04258007 0.030278092 0.03408081 0.04141616 0.031138994 0.04232067 0.046112344 0.04602057
00000000: 8e41 233d 5f24 183d e68d 2c3d 4cbc 2a3d
00000010: 592b 063d d418 493d 3a89 1f3d c9da 323d
00000020: c0a5 3f3d 687d df3c 4f7e ff3c 55a3 0d3d
00000030: 1155 e43c a955 2e3d 2779 ec3c fa87 073d
00000040: 5d68 ff3c 0ebb 563d 0961 053d 2d49 253d
00000050: 3330 303d 7557 f23c 7ecd 2a3d ee60 3a3d
00000060: cf12 3c3d 3493 173d 2899 1a3d b6ca 5a3d
00000070: 1ef8 db3c 4d99 233d c796 073d 7efd 103d
00000080: 1b2f 0f3d d69b fa3c c295 103d ffdc d53c
00000090: 6fc1 023d 07dc 573d 1b2b 303d 90a9 113d
000000a0: 4f3e 193d b401 2e3d 9223 363d 7307 2c3d
000000b0: 89b7 163d d78c 4f3d 8747 493d 9f22 1f3d
000000c0: 2c95 cd3c a06b 0c3d 2daa 313d dce2 363d
000000d0: aed9 293d a522 1f3d f077 413d 8e04 123d
000000e0: 2a6d 293d 3d12 093d 3c5b ea3c b406 343d
000000f0: c9b7 023d d1ab 233d ad7d 203d 8d37 2f3d
00000100: 4891 513d 369a 613d 282c dc3c 0860 073d
00000110: 1d05 3c3d ca41 253d f1c7 f33c 3898 e73c
00000120: 0267 103d 7f7a 5f3d 7464 703d 0945 283d
00000130: 037c 3a3d 20e1 323d 155f 1f3d fe9f 193d
00000140: 4628 2b3d be3d fc3c 046e 453d 4ed4 5c3d
00000150: 357e 003d 7579 2e3d df25 2c3d 4857 353d
00000160: aa9f 453d 0441 013d 1dc7 0f3d 0179 6e3d
00000170: f40a 343d d0a7 2b3d dc46 cb3c 4ef7 313d
00000180: 6526 bf3c 5ad9 413d df78 253d 7454 e13c
00000190: 9dba f13c ae29 a93c 0129 163d d45d 143d
000001a0: 24bc fc3c 8513 4f3d ad3d 453d 70a6 473d
000001b0: f651 2e3d 300d 2b3d 02e4 5e3d d86f 2d3d
000001c0: ca16 2e3d 2682 f63c b654 083d e6e2 003d
000001d0: 6ed7 2e3d ed8a 433d e1fd 383d 4c8d 333d
000001e0: 7168 2e3d c309 f83c 5298 0b3d fea3 293d
000001f0: 3417 ff3c 7058 2d3d 4ce0 3c3d 1180 3c3d
